Neural_Networks_Adversarial_Attacks_Defense/saved_models/fc_model_vs_PGD.pt (torch, 401711 bytes, 8 tensors)

fc1.weight f4 [100, 784]
0.020916156 0.015662067 -0.013386875 -0.023877261 -0.0076664616 0.031970788 0.0471301 0.021229373
-0.023588052 0.018655142 0.008498998 0.024026135 0.030220611 0.011323914 0.05925891 0.050014384
-0.012315085 0.049312815 0.05218071 0.027979752 0.04686968 0.014400702 0.023405073 0.03653844
0.016379196 0.020593865 -0.023962134 0.010844788 0.05100761 0.028420245 0.04497723 -0.0046675443
-0.012818132 0.0055446555 -0.014528462 0.007968563 0.02543148 0.05716865 -0.0070715 0.0122576095
0.05164644 0.019188456 0.030544013 0.04482862 0.03011373 0.05271816 0.048809715 0.058614176
0.070404045 0.007750935 0.022714684 0.010779929 0.027512036 -0.013040952 -0.020632418 -0.028657267
-0.0040446445 0.01631029 -0.0042894124 -0.03256455 -0.019268222 -0.0013059535 -0.005321124 -0.026012823
0.030950017 0.036289744 0.027142826 0.043091442 0.017846104 0.06511002 0.03403349 0.03945978
0.047237284 0.001495477 0.0012952468 0.013499993 0.012265305 0.0024756594 -0.013381517 -0.017370628
0.018465333 0.021064775 -0.038235903 0.014928271 -0.063160025 0.012061368 0.018422434 0.011114104
0.003362324 -0.013457786 -0.013466245 -0.014493137 -0.0017808465 -0.01162428 0.03019128 0.035425045
0.0060067475 0.05365088 0.045042902 0.024143742 0.06613693 0.0017014198 0.011678485 -0.009006489
-0.004764155 -0.01789293 0.023220377 0.024935164 0.023494836 0.015523318 0.0018056824 -0.04440308
-0.029056355 2.4712608e-06 0.008390647 0.012798746 -0.005288888 0.014425411 -0.00017928507 -0.0022763705
-0.015603888 -0.009018877 -0.009753627 0.027383387 -0.014146985 0.03037505 0.03590726 0.08903295
0.053700477 0.022585386 -0.012572176 0.014603646 0.04030444 -0.007752101 0.0007416853 0.020530147
-0.01023296 0.029294528 -0.03648648 0.009976377 -0.016601935 0.035174243 0.027245782 -0.011156355
-0.003753966 -0.029565929 -0.030797174 0.021518825 -0.004840037 -0.010385351 -0.0070240917 0.0046770796
0.032675467 0.015310271 0.05597879 0.05411526 0.0711737 0.02990872 -0.009303676 -0.03109774
-0.028392458 -0.021351343 -0.00049198937 -0.0048915055 -0.0011696799 0.03286102 -0.0074497187 0.02156202
-0.019775184 -0.020480415 -0.0047996496 -0.033064764 -0.006158163 0.00725852 -0.02194637 -0.014248055
-0.06647029 -0.027372472 -0.0005099613 -0.01479729 -0.02601702 -0.020025918 4.288317e-05 0.017109277
0.08109513 0.07424319 0.062236775 0.024707029 0.017538233 -0.0025612107 0.0006453032 -0.0038561139
-0.029209644 -0.009215797 -0.0048117707 0.016411358 -0.012817855 -0.0143260835 -0.0013980363 -0.0053402116
-0.021772554 -0.034583583 -0.030711787 -0.0137305325 -0.018082378 0.0013476225 -0.057541877 -0.04159303
-0.046632353 -0.022320896 -0.004564121 0.048954573 0.06217883 0.05289561 0.051085778 0.05383901
-0.01182303 -0.018160079 -0.013572046 0.0307449 -0.014904871 -0.024317684 0.019365966 0.023140334
0.012842624 0.02515506 0.0020772493 -0.0346055 -0.016917555 -0.03758846 -0.038249113 -0.05690929
-0.062558115 -0.05616205 -0.031932704 -0.031003918 -0.03573558 -0.0055357437 -0.030768225 -0.02472645
0.00090454204 0.036975164 0.0681576 0.04744574 -0.007252281 0.0058896244 0.010927775 -0.023164663
0.0076128603 -0.0057857223 0.00621226 -0.031463042 -0.010249127 -0.024287758 -0.03463821 -0.017360577
00000000: 5c58 ab3c bc4d 803c a054 5bbc 3f9a c3bc
00000010: f136 fbbb cdf3 023d 7e0b 413d 39e9 ad3c
00000020: bb3b c1bc abd2 983c 623f 0b3c 75d2 c43c
00000030: 3791 f73c f087 393c 79b9 723d e2db 4c3d
00000040: 36c5 49bc 3cfc 493d 71bb 553d cb35 e53c
00000050: 6cfa 3f3d ecf0 6b3c ffbb bf3c 55a9 153d
00000060: aa2d 863c 77b4 a83c 3d4c c4bc 56ae 313c
00000070: 5bed 503d 93d1 e83c 0b3a 383d 33f2 98bb
00000080: 2403 52bc f1af b53b c908 6ebc 938e 023c
00000090: ae55 d03c ad29 6a3d 0bb8 e7bb 24d4 483c
000000a0: 388b 533d 1c31 9d3c 7037 fa3c 379e 373d
000000b0: 12b1 f63c ffee 573d b2ec 473d 6b15 703d
000000c0: ff2f 903d 8efb fd3b 2514 ba3c 4d9e 303c
000000d0: ec60 e13c b8a9 55bc 5105 a9bc a5c2 eabc
000000e0: f088 84bb 289d 853c 338e 8cbb 6862 05bd
000000f0: 64d8 9dbc 872c abba d35c aebb d818 d5bc
00000100: e48a fd3c 8ea4 143d a25a de3c a780 303d
00000110: fe31 923c 6758 853d b366 0b3d 94a0 213d
00000120: e27b 413d e203 c43a 45c5 a93a 132f 5d3c
00000130: 6bf4 483c ac3e 223b 263e 5bbc d94c 8ebc
00000140: 9c44 973c 0990 ac3c 409d 1cbd b595 743c
00000150: 0b5a 81bd 0b9d 453c a5ea 963c ee17 363c
00000160: 705a 5c3b 0c7e 5cbc 86a1 5cbc 9f74 6dbc
00000170: 4b6b e9ba c473 3ebc b453 f73c da19 113d
00000180: 40d4 c43b 06c1 5b3d e87e 383d 19c9 c53c
00000190: cc72 873d 2d02 df3a 1e57 3f3c f48f 13bc
000001a0: a11c 9cbb 3294 92bc a938 be3c d444 cc3c
000001b0: 3e78 c03c 8455 7e3c a6ac ec3a 01e0 35bd
000001c0: 9807 eebc f0d7 2536 ed78 093c d5b1 513c
000001d0: 684e adbb 8f58 6c3c 78fe 3bb9 292f 15bb
000001e0: 73a7 7fbc e9c3 13bc adcd 1fbc 2053 e03c
000001f0: c1c8 67bc 19d5 f83c 7e13 133d e856 b63d
00000200: 08f5 5b3d fd04 b93c 87fb 4dbc 2144 6f3c
00000210: 4516 253d 5605 febb a86d 423a d72e a83c
00000220: 25a8 27bc 14fb ef3c d972 15bd f573 233c
00000230: c800 88bc de12 103d 8c32 df3c 25c9 36bc
00000240: 1905 76bb 3f34 f2bc 5b4a fcbc 3f48 b03c
00000250: 2c99 9ebb 5227 2abc 5a2a e6bb 3042 993b
00000260: b6d6 053d eed7 7a3c 044a 653d f6a7 5d3d
00000270: 84c3 913d 2203 f53c 726e 18bc b0c0 febc
00000280: 4d97 e8bc 03e9 aebc d9f8 00ba ec48 a0bb
00000290: f24f 99ba 4799 063d c51c f4bb d5a2 b03c
000002a0: 91ff a1bc 8bc6 a7bc 6146 9dbb eb6e 07bd
000002b0: 6aca c9bb e1d8 ed3b e0c8 b3bc ad70 69bc
000002c0: 9321 88bd 3c3c e0bc ecae 05ba 5570 72bc
000002d0: a521 d5bc 650d a4bc 74dd 3338 c128 8c3c
000002e0: 3415 a63d d00c 983d fdeb 7e3d 6566 ca3c
000002f0: 57ac 8f3c fcd9 27bb 9129 293a dbb6 7cbb
00000300: 1049 efbc dbfd 16bc 0fac 9dbb 1d71 863c
00000310: fb01 52bc f3b7 6abc 503e b7ba f1fc aebb
00000320: 5b5c b2bc 84a7 0dbd 4997 fbbc 07f6 60bc
00000330: 7f21 94bc b5a2 b03a 08b1 6bbd 745d 2abd
00000340: 9101 3fbd 50da b6bc 9f8e 95bb 9784 483d
00000350: 3baf 7e3d 11a9 583d 523f 513d 4b86 5c3d
00000360: 62b5 41bc 72c4 94bc 495d 5ebc bbdc fb3c
00000370: 8f33 74bc e135 c7bc 60a5 9e3c cc90 bd3c
00000380: df69 523c fc11 ce3c 7622 083b 7fbe 0dbd
00000390: af96 8abc 5bf6 19bd 1aab 1cbd b719 69bd
000003a0: 781e 80bd 2e0a 66bd decb 02bd eefb fdbc
000003b0: 795f 12bd 2f65 b5bb a50d fcbc 208f cabc
000003c0: ca1e 6d3a 4573 173d 3696 8b3d 7756 423d
000003d0: 8ba4 edbb c0fd c03b 690a 333c d2c3 bdbc
000003e0: 4d75 f93b 2896 bdbb 3790 cb3b 64df 00bd
000003f0: f4eb 27bc 1ff7 c6bc cce0 0dbd c537 8ebc

fc1.bias f4 [100]
0.045666788 0.029995244 -0.0042954 0.0045860973 0.009141276 0.008450163 0.12706646 -0.05814747
-0.07065849 0.00026017404 0.023220701 0.014756686 -0.07314149 -0.06964991 0.10394014 0.02491734
0.0128283445 0.17163275 -0.024938561 -0.036532562 -0.0005205737 -0.028260363 0.016960066 0.02665296
-0.005574741 -0.021354921 0.017202789 -0.05761712 -0.059814185 0.019043919 0.012687313 -0.0012210483
-0.012463094 0.007871614 0.0128255235 0.05569685 -0.04445509 0.054169547 -0.02300742 0.036702663
0.06154162 0.14461723 0.017837424 0.04581179 0.014282934 0.03701377 0.053922813 0.030902276
-0.007891444 0.06311218 0.053766206 0.008479722 0.07492375 0.006081321 0.03576394 -0.008899876
-0.0059885313 0.09702754 0.038230732 -0.0019349033 0.0670121 -0.027189266 0.039252494 0.0023695843
0.019535674 0.07581155 0.041303165 -0.014856904 0.028480064 0.020610709 0.04707215 0.009183726
0.059603658 -0.008613558 0.012544492 0.11359329 0.030042218 -0.03334683 0.037674878 0.053070195
-0.043590922 0.06628275 -0.051521286 0.009674912 0.02675695 0.06014465 0.046243638 -0.108141445
-0.028399529 0.05620636 0.023265433 0.003976429 -0.025886618 -0.07455392 0.065113515 -0.00026725637
0.003519492 0.090362675 0.031197473 0.051413473
00000000: 190d 3b3d 96b8 f53c 6dc0 8cbb f946 963b
00000010: 4ac5 153c 8d72 0a3c b61d 023e 0b2c 6ebd
00000020: 66b5 90bd f867 8839 5739 be3c 07c6 713c
00000030: 35cb 95bd 9da4 8ebd 91de d43d 731f cc3c
00000040: fa2d 523c 7fc0 2f3e f44b ccbc 2ba3 15bd
00000050: 1c77 08ba 4782 e7bc d6ef 8a3c 4f57 da3c
00000060: 51ac b6bb 84f0 aebc ddec 8c3c eeff 6bbd
00000070: b8ff 74bd fe01 9c3c 73de 4f3c 950b a0ba
00000080: 0132 4cbc f1f7 003c 2522 523c 6122 643d
00000090: 8a16 36bd e3e0 5d3d 0f7a bcbc 8855 163d
000000a0: 1113 7c3d 8a16 143e ca1f 923c 25a5 3b3d
000000b0: f802 6a3c c09b 173d 2bde 5c3d c526 fd3c
000000c0: 1d4b 01bc f540 813d f439 5c3d 88ee 0a3c
000000d0: 9f71 993d d145 c73b 367d 123d c9d0 11bc
000000e0: 713b c4bb 60b6 c63d d497 1c3d 959c fdba
000000f0: a43d 893d 06bc debc 39c7 203d 074b 1b3b
00000100: 4709 a03c 1643 9b3d 822d 293d 5f6a 73bc
00000110: 064f e93c cad7 a83c bace 403d 5777 163c
00000120: f722 743d e11f 0dbc 6a87 4d3c 99a3 e83d
00000130: 191b f63c b096 08bd f950 1a3d 2260 593d
00000140: 658c 32bd 40bf 873d fc07 53bd 8683 1e3c
00000150: 6431 db3c 3d5a 763d f869 3d3d 4379 ddbd
00000160: 21a6 e8bc a438 663d 2697 be3c b44c 823b
00000170: 2c10 d4bc baaf 98bd 3c5a 853d 8b1e 8cb9
00000180: 47a7 663b 1110 b93d d891 ff3c ef96 523d

fc2.weight f4 [100, 100]
-0.039779644 0.21594529 -0.029633604 0.008769253 -0.028676957 0.049701802 0.12482182 0.0798046
-0.13313948 -0.040006187 0.039290678 0.0010294237 0.013993786 -0.034971125 0.18834528 0.13441521
-0.08388423 0.26859027 -0.021711333 -0.0976815 0.0067191725 0.086345755 -0.08233952 0.035246212
0.06928338 -0.0073648486 0.1422272 -0.15480046 0.0028730729 -0.06718943 0.13727595 0.11716914
0.0006420756 0.15216836 0.16511089 -0.14729331 -0.15350197 -0.07657091 -0.13888319 -0.01687997
0.08168507 0.17107257 -0.04640402 0.024077117 -0.17471111 0.09831508 -0.09114939 -0.07508948
0.09984196 0.0135449795 0.17248821 0.020779133 -0.055228394 -0.0001390773 0.09794476 0.08007876
0.18582386 -0.015450088 -0.08631812 0.12722465 0.17400037 -0.07727224 -0.12632856 0.2604541
-0.14432073 0.09143533 -0.07084104 0.05186684 -0.0018548007 0.17220646 -0.07923463 0.15768136
0.08266897 0.017612856 -0.03598861 0.03813147 -0.04376523 0.053838424 0.15131964 0.14081539
0.064621046 -0.12040685 0.09528007 -0.116440244 0.11891253 -0.080807656 0.0005928533 -0.040208414
-0.13320626 -0.060185168 0.050756037 -0.08446804 0.117872044 0.12295766 0.031795237 -0.06091898
-0.0052847173 0.05080995 0.037954453 -0.07060656 0.04843055 -0.041443173 0.04172574 0.048819132
-0.07547116 -0.0047162343 0.046777394 -0.06552271 -0.05915253 -0.06276052 0.032346644 0.0037937483
0.005401574 -0.07664446 -0.01735787 0.02299404 0.028284961 0.075630076 -0.03839368 -0.016603552
0.02346036 -0.027047208 -0.08721715 -0.014664542 -0.08198624 0.022358833 -0.060910307 -0.045572035
0.038326852 0.048318993 -0.042829163 0.021856492 -0.06332585 -0.08327785 -0.08044168 0.034113962
-0.048700895 -0.033768173 -0.016866682 0.024985304 0.011562735 -0.035768583 0.0014302102 -0.0146324355
0.0037068943 -0.086238235 0.0050280895 -0.06399275 -0.07642853 0.010598863 -0.029535757 0.06995853
0.016117722 -0.076761745 0.07461297 -0.0017165963 -0.06668232 0.031732142 0.035404943 -0.07280565
0.041502006 -0.031175511 -0.0846365 0.061766826 -0.056864902 0.075619265 0.06691056 0.07732027
-0.035058163 -0.05172606 -0.09051072 0.06550135 -0.05346411 0.030516105 -0.067878745 0.040232275
0.08327966 -0.070808195 -0.037499227 0.008893906 -0.054214835 0.06893858 0.09059643 -0.08632261
0.028722811 -0.07537571 0.03628893 -0.0810551 0.0726768 -0.05162895 -0.041937843 -0.051906113
-0.042982403 0.047476694 -0.008971631 0.029041575 0.011032111 -0.034828622 -0.08078987 -0.06272947
0.048667252 0.08032003 0.06939129 -0.061464332 0.0002549662 -0.072445355 0.06735555 -0.03188356
0.09365197 0.06252973 0.10799707 -0.0030166055 0.0101732155 0.05551407 -0.0357391 0.19912842
-0.0337608 0.06966404 -0.012023292 -0.0032179968 0.085108615 0.07033325 -0.07788792 -0.19616328
0.0015371026 0.06313146 0.052713204 0.058049537 -0.06388485 -0.05047779 -0.013092185 -0.006826022
-0.032021742 0.0729205 -0.0798706 -0.058050986 -0.032406878 -0.038816415 -0.06799129 -0.019156516
0.032093376 0.14140426 0.10469931 0.06812579 -0.07872056 -0.009992775 0.0086132595 0.07043573
-0.012760527 -0.022736067 -0.003921374 -0.035664693 0.035004474 0.09172899 0.0723606 -0.06735077
00000000: fbef 22bd c320 5d3e 2cc2 f2bc eaac 0f3c
00000010: f0eb eabc 1e94 4b3d 95a2 ff3d 9870 a33d
00000020: b755 08be 87dd 23bd 43ef 203d baed 863a
00000030: 3146 653c e23d 0fbd 96dd 403e 24a4 093e
00000040: 7fcb abbd aa84 893e f7db b1bc 3d0d c8bd
00000050: 812c dc3b 0bd6 b03d 9fa1 a8bd 555e 103d
00000060: 72e4 8d3d d454 f1bb 02a4 113e 0384 1ebe
00000070: 2a4a 3c3b 9d9a 89bd 1192 0c3e 60f6 ef3d
00000080: f750 283a 06d2 1b3e d412 293e 0fd4 16be
00000090: 9f2f 1dbe 36d1 9cbd 6537 0ebe dd47 8abc
000000a0: 814a a73d a62d 2f3e 2412 3ebd 603d c53c
000000b0: 78e7 32be 6b59 c93d 88ac babd 83c8 99bd
000000c0: f179 cc3d c3eb 5d3c c0a0 303e 0039 aa3c
000000d0: 2b37 62bd 47d5 11b9 4397 c83d 5500 a43d
000000e0: 9c48 3e3e 5e22 7dbc 8ec7 b0bd 2e47 023e
000000f0: 272d 323e e840 9ebd 465c 01be 3d5a 853e
00000100: d0c8 13be 7242 bb3d 1b15 91bd 5372 543d
00000110: c91c f3ba e456 303e c445 a2bd 3977 213e
00000120: 594e a93d d648 903c cb68 13bd bf2f 1c3d
00000130: 2b43 33bd ae85 5c3d 89f3 1a3e e931 103e
00000140: 0a58 843d de97 f6bd 3322 c33d 3978 eebd
00000150: 6a88 f33d 7c7e a5bd b669 1b3a 94b1 24bd
00000160: 3967 08be b984 76bd 90e5 4f3d 94fd acbd
00000170: e666 f13d 3ad1 fb3d b93b 023d 2e86 79bd
00000180: 6c2b adbb 181e 503d 2176 1b3d 2c9a 90bd
00000190: 1d5f 463d 51c0 29bd 9ce8 2a3d 92f6 473d
000001a0: a090 9abd a48a 9abb a799 3f3d c530 86bd
000001b0: ec49 72bd 9688 80bd ea7d 043d 89a0 783b
000001c0: b0ff b03b c5f7 9cbd 1732 8ebc ff5d bc3c
000001d0: ddb5 e73c f1e3 9a3d b142 1dbd 2c04 88bc
000001e0: f12f c03c 1b92 ddbc e89e b2bd 8c43 70bc
000001f0: 67e8 a7bd df29 b73c 167d 79bd bea9 3abd
00000200: 9efc 1c3d 23ea 453d a26d 2fbd 630c b33c
00000210: fcb0 81bd 948d aabd 9cbe a4bd 15bb 0b3d
00000220: 977a 47bd 7f50 0abd ff2b 8abc fbad cc3c
00000230: a071 3d3c 1482 12bd e475 bb3a e2bc 6fbc
00000240: 5eef 723b ac9d b0bd acc2 a43b a20e 83bd
00000250: 9086 9cbd daa6 2d3c f9f4 f1bc 6b46 8f3d
00000260: 5009 843c 4335 9dbd afce 983d 6aff e0ba
00000270: bd90 88bd 90f9 013d c604 113d 211b 95bd
00000280: 02fe 293d c963 ffbc e755 adbd 36ff 7c3d
00000290: 2ceb 68bd 46de 9a3d 6708 893d 175a 9e3d
000002a0: 2699 0fbd b5de 53bd af5d b9bd 9225 863d
000002b0: 2ffd 5abd e9fc f93c 0304 8bbd 99ca 243d
000002c0: 878e aa3d e303 91bd ca98 19bd bfb7 113c
000002d0: 6010 5ebd ac2f 8d3d 9f8a b93d e9c9 b0bd
000002e0: 1a4c eb3c 955e 9abd b3a3 143d 3700 a6bd
000002f0: 93d7 943d e178 53bd 04c7 2bbd 819b 54bd
00000300: 510e 30bd ec76 423d bffd 12bc 99e8 ed3c
00000310: 07c0 343c 75a8 0ebd 2975 a5bd 4f78 80bd
00000320: 5057 473d d47e a43d 051d 8e3d 06c2 7bbd
00000330: fcac 8539 3b5e 94bd b5f1 893d 5698 02bd
00000340: 9bcc bf3d 960f 803d 912d dd3d 3eb2 45bb
00000350: 8fad 263c b962 633d 2a63 12bd 52e8 4b3e
00000360: c448 0abd 05ac 8e3d 57fd 44bc 07e5 52bb
00000370: 6d4d ae3d e10a 903d b483 9fbd 07df 48be
00000380: 9b78 c93a 114b 813d cde9 573d 5ac5 6d3d
00000390: 0fd6 82bd cdc1 4ebd 9b80 56bc d3ac dfbb
000003a0: 3b29 03bd 5857 953d 3293 a3bd dfc6 6dbd
000003b0: 13bd 04bd f6fd 1ebd 043f 8bbd 20ee 9cbc
000003c0: 5874 033d 47cc 103e 986c d63d 8985 8b3d
000003d0: 3f38 a1bd bcb8 23bc a11e 0d3c 9c40 903d
000003e0: 8811 51bc fd40 babc df7e 80bb 2415 12bd
000003f0: da60 0f3d 69dc bb3d cb31 943d 33ef 89bd

fc2.bias f4 [100]
0.037311718 -0.006429633 0.06183373 0.035242185 0.059814453 0.06761082 -0.027948726 0.09636264
0.07303205 -0.015658872 -0.06511385 -0.00047286812 0.02121067 0.05225984 -0.031344585 0.024311736
-0.077090375 -0.043877475 0.08670939 -0.030721271 0.13061117 -0.044960648 -0.052562006 0.042805757
0.09995542 -0.06350784 0.05286309 0.035086986 -0.05486901 0.00805321 0.011131487 0.069797546
-0.060276385 0.023482213 -0.074286036 -0.044197347 -0.027785795 0.084462 0.032354254 0.10093093
0.015352868 0.10001984 -0.054169077 0.09920128 0.08391703 -0.004955993 0.20740223 -0.07731754
0.06582778 0.060515743 0.054003824 0.11604325 0.09939424 0.0066329977 -0.07351668 0.15580603
0.151207 -0.09925088 0.005106517 -0.04202241 0.114469014 0.16797459 -0.036038477 0.0923172
-0.052472282 0.010945495 -0.027099192 -0.00455366 0.050939675 -0.07346488 -0.010160514 0.03823023
-0.046141308 0.029073993 -0.084741525 0.1459614 -0.057755362 0.04746986 0.10520289 0.049197424
0.0759402 -0.07683079 0.03800875 0.089354366 0.13435745 0.06635331 -0.03263938 -0.015028484
0.17168438 -0.053867824 -0.02615629 0.00076620094 -0.03962261 -0.053505536 0.0061376845 -0.047321863
-0.04943066 0.09768845 -0.008293962 0.015525272
00000000: 2cd4 183d acaf d2bb 5e45 7d3d 1c5a 103d
00000010: 0000 753d 8b77 8a3d baf4 e4bc c759 c53d
00000020: d491 953d 0947 80bc 695a 85bd 49eb f7b9
00000030: 00c2 ad3c 6a0e 563d 2e63 00bd 6829 c73c
00000040: 8fe1 9dbd deb8 33bd b194 b13d 2dab fbbc
00000050: efbe 053e a828 38bd 424b 57bd 1755 2f3d
00000060: 6db5 cc3d 6610 82bd f886 583d 5fb7 0f3d
00000070: 54be 60bd 9cf1 033c d760 363c 04f2 8e3d
00000080: 5fe4 76bd c55d c03c 4723 98bd 4708 35bd
00000090: 099f e3bc 6afa ac3d e585 043d e0b4 ce3d
000000a0: 988a 7b3c 34d7 cc3d 65e0 5dbd 0a2a cb3d
000000b0: b1dc ab3d e265 a2bb 4061 543e a958 9ebd
000000c0: b7d0 863d 5bdf 773d 1d33 5d3d 15a8 ed3d
000000d0: 358f cb3d 9e59 d93b ea8f 96bd 9e8b 1f3e
000000e0: 02d6 1a3e 0c44 cbbd 9254 a73b b11f 2cbd
000000f0: bb6e ea3d 8801 2c3e 159d 13bd cd10 bd3d
00000100: 2ded 56bd bc54 333c 20ff ddbc de36 95bb
00000110: 1fa6 503d c174 96bd 4978 26bc 4d97 1c3d
00000120: abfe 3cbd 952c ee3c f78c adbd e876 153e
00000130: e390 6cbd c26f 423d 9d74 d73d 3d83 493d
00000140: 8986 9b3d 7659 9dbd 10af 1b3d 6cff b63d
00000150: 0095 093e 3fe4 873d dfb0 05bd 083a 76bc
00000160: 08ce 2f3e 82a4 5cbd b745 d6bc e0da 483a
00000170: 514b 22bd 9f28 5bbd a11e c93b 92d4 41bd
00000180: ce77 4abd e210 c83d 66e3 07bc b65d 7e3c

fc3.weight f4 [100, 100]
0.24810669 0.010916862 -0.08063429 -0.016766466 0.08268291 -0.06908284 -0.054107815 -0.07642472
0.06967332 0.04779513 -0.0022808644 -0.064172685 -0.044367485 -0.0686089 -0.08605769 -0.04726319
-0.061965052 0.031317018 -0.14443466 0.18404911 -0.005104358 -0.025094217 -0.09310484 -0.10055006
0.12255798 0.029654289 -0.017096443 -0.09885829 -0.02879539 0.013122038 0.18180647 -0.07402936
-0.016653266 0.22729765 0.08998557 -0.08166798 -0.006704469 0.13385548 -0.022798497 0.03838998
0.015355472 0.06378032 -0.009199174 0.25936842 0.16362473 -0.14039531 0.00347007 -0.07894726
0.05387904 0.1331052 0.04521851 -0.06478393 0.012525693 0.075343475 -0.077484265 0.050399575
-0.025467163 -0.07744354 0.0466354 -0.0014535245 0.13430181 0.0125140855 0.12213962 0.018572079
0.007467094 -0.07608489 0.018157095 -0.046234448 -0.090928026 -0.081721544 0.21483344 -0.049120508
0.019900665 0.0681527 0.0062396787 -0.15669703 -0.047767267 -0.0005669451 0.15427078 0.12606883
0.044022765 0.05580681 0.06190081 -0.034662023 0.24271165 -0.074556515 0.0396836 0.036378417
0.17761669 -0.1053785 -0.03333514 -0.10981566 0.026160145 0.090156145 0.10214499 -0.0022179354
0.0057076183 0.08531468 -0.004348687 0.070308395 0.1287578 0.025528768 -0.08787766 -0.16033822
0.14596291 -0.016716335 -0.013604035 -0.13986121 -0.037876926 -0.02915527 -0.0343638 -0.019494152
0.030404657 0.0059612826 -0.0629519 0.0907856 -0.020646254 -0.03178924 -0.0026323637 0.13481696
0.20792937 0.06408793 -0.06774244 0.118064895 0.13412032 0.08184525 -0.050219867 0.05327256
-0.04096898 -0.08083425 -0.08532126 -0.0730666 -0.08241604 -0.02157616 -0.004510604 0.06337159
0.0398962 -0.062566735 -0.010729023 0.05060038 -0.02756654 -0.18394892 -0.09363793 0.10809195
-0.05800882 -0.056310035 0.07256839 0.026245618 -0.026438361 0.13885647 -0.054153293 -0.036209412
0.2011965 0.08657743 -0.05543074 0.057713445 -0.07220461 0.07625558 0.06875662 -0.06641061
-0.03675554 -0.14461286 0.11699947 0.007445232 -0.005565447 0.039808534 0.17351934 -0.080312446
-0.129006 0.112402275 -0.14946203 0.033073537 0.030088635 -0.047373176 0.043695178 0.03118826
0.023536604 0.051872965 -0.026641475 0.037030008 -0.122841775 -0.08801869 0.07459824 -0.019648265
0.17346756 0.100198425 0.039615944 0.085226394 0.064407274 0.04788111 -0.015797313 0.0059608794
-0.05046935 -0.07693644 0.13716231 -0.045969594 -0.039997842 -0.016751265 0.0521559 0.11292246
0.15962417 -0.0061112456 0.019167403 -0.028534006 0.0059988373 -0.042534616 -0.0050241407 -0.013603268
0.058308598 0.04443972 0.041734245 -0.071128696 0.043468446 -0.05256644 0.005001646 0.049176365
-0.0078145135 0.078882806 -0.14349253 0.14259613 0.061724953 0.025654864 0.027142124 0.0028112521
-0.1090663 0.09058098 -0.029387947 0.019097613 0.03794414 -0.013401122 0.049705192 -0.11275062
-0.08542774 0.12273429 0.06000984 0.050578035 -0.0717754 -0.05558274 0.075020574 0.0888822
-0.04802153 0.07528638 0.0736023 0.10215647 -0.06643676 0.10822861 -0.003401328 -0.033142783
0.00038129717 0.08714369 0.17289281 -0.052306283 0.10807328 -0.009642434 -0.064731695 -0.16535655
00000000: ae0f 7e3e a3dc 323c 9723 a5bd d459 89bc
00000010: a855 a93d 4e7b 8dbd 28a0 5dbd 9084 9cbd
00000020: e3b0 8e3d d4c4 433d 8e7a 15bb f86c 83bd
00000030: aeba 35bd d382 8cbd 043f b0bd 0c97 41bd
00000040: 11cf 7dbd 4646 003d aee6 13be 5f77 3c3e
00000050: 7542 a7bb 6392 cdbc c0ad bebd 31ed cdbd
00000060: aeff fa3d 8ded f23c d70d 8cbc 3776 cabd
00000070: 4fe4 ebbc d1fd 563c 7a2b 3a3e b59c 97bd
00000080: 6e6c 88bc b7c0 683e 5b4a b83d 8b41 a7bd
00000090: 2ab1 dbbb 6911 093e eac3 babc d03e 1d3d
000000a0: 8595 7b3c 429f 823d 22b8 16bc f0cb 843e
000000b0: 3e8d 273e cac3 0fbe 1d6a 633b 1aaf a1bd
000000c0: 45b0 5c3d bb4c 083e 0b37 393d 70ad 84bd
000000d0: 9038 4d3c ae4d 9a3d 12b0 9ebd c96f 4e3d
000000e0: 83a0 d0bc b89a 9ebd c304 3f3d 3084 beba
000000f0: 6a86 093e e107 4d3c 5624 fa3d 7924 983c
00000100: 86ae f43b 65d2 9bbd 30be 943c 5560 3dbd
00000110: 7938 babd a05d a7bd 4cfd 5b3e 9632 49bd
00000120: b806 a33c a593 8b3d 3876 cc3b 3075 20be
00000130: 9ca7 43bd 0b9f 14ba 29f9 1d3e 3018 013e
00000140: 3751 343d ae95 643d b48b 7d3d c4f9 0dbd
00000150: 6789 783e 16b1 98bd 458b 223d 8901 153d
00000160: 26e1 353e afd0 d7bd 6e8a 08bd 08e7 e0bd
00000170: cd4d d63c c9a3 b83d 6431 d13d c85a 11bb
00000180: f906 bb3b 77b9 ae3d 6e7f 8ebb d9fd 8f3d
00000190: 16d9 033e b521 d13c 34f9 b3bd b42f 24be
000001a0: 4d77 153e b2f0 88bc 75e3 5ebc c737 0fbe
000001b0: d624 1bbd 08d7 eebc 0ec1 0cbd 33b2 9fbc
000001c0: 3013 f93c dd56 c33b edec 80bd cded b93d
000001d0: 5522 a9bc 6f35 02bd bc83 2cbb 750d 0a3e
000001e0: 70eb 543e 8840 833d 8cbc 8abd 02cc f13d
000001f0: d656 093e 7c9e a73d 59b3 4dbd 5434 5a3d
00000200: 17cf 27bd 6d8c a5bd eabc aebd f1a3 95bd
00000210: bec9 a8bd 7dc0 b0bc b0cd 93bb f7c8 813d
00000220: 336a 233d fd22 80bd c9c8 2fbc 5842 4f3d
00000230: 39d3 e1bc 1b5d 3cbe 3ec5 bfbd 505f dd3d
00000240: a89a 6dbd 5aa5 66bd bc9e 943d 0d01 d73c
00000250: 4395 d8bc 6430 0e3e d8cf 5dbd 5250 14bd
00000260: 7506 4e3e 824f b13d 580b 63bd ef64 6c3d
00000270: 03e0 93bd e32b 9c3d 45d0 8c3d 4902 88bd
00000280: fa8c 16bd 6515 14be 6b9d ef3d 22f7 f33b
00000290: 5a5e b6bb 460e 233d 0eaf 313e da7a a4bd
000002a0: 261a 04be 2a33 e63d 930c 19be 1e78 073d
000002b0: 717c f63c 600a 42bd b7f9 323d 867e ff3c
000002c0: d6cf c03c bf78 543d 393f dabc c7ac 173d
000002d0: 7894 fbbd 2543 b4bd f6c6 983d 66f5 a0bc
000002e0: 7ba1 313e d534 cd3d 5444 223d 2d8b ae3d
000002f0: f6e7 833d fc1e 443d 5e69 81bc 7b53 c33b
00000300: f3b8 4ebd da90 9dbd 4774 0c3e 9d4a 3cbd
00000310: c7d4 23bd f339 89bc 6da1 553d e443 e73d
00000320: 8574 233e d840 c8bb f504 9d3c 26c0 e9bc
00000330: e591 c43b c738 2ebd 8ca1 a4bb 3ee0 5ebc
00000340: ffd4 6e3d 6d06 363d 87f1 2a3d ecab 91bd
00000350: f80b 323d e84f 57bd d9e4 a33b 286d 493d
00000360: 7208 00bc 4f8d a13d b5ef 12be b804 123e
00000370: 4ed3 7c3d 262a d23c 2959 de3c fc3c 383b
00000380: 275e dfbd 8582 b93d febe f0bc 9972 9c3c
00000390: 516b 1b3d 6190 5bbc ac97 4b3d cce9 e6bd
000003a0: bdf4 aebd 1e5c fb3d e1cc 753d ea2a 4f3d
000003b0: fbfe 92bd baaa 63bd 63a4 993d df07 b63d
000003c0: 39b2 44bd bf2f 9a3d cdbc 963d 6937 d13d
000003d0: ff0f 88bd f6a6 dd3d d1e8 5ebb bac0 07bd
000003e0: d7e8 c739 6478 b23d d00a 313e 1d3f 56bd
000003f0: 8655 dd3d 4dfb 1dbc 0d92 84bd 3a53 29be

fc3.bias f4 [100]
0.2012736 -0.06974199 0.10063994 0.12679423 0.28214124 -0.068588205 -0.01699729 0.1249331
0.0012723465 0.14826211 -0.050494578 -0.06741564 0.055785146 -0.07057522 0.012778137 0.0022852095
0.11128035 -0.0029342163 0.0045233085 0.03497296 0.14055012 -0.06535488 -0.04994435 -0.030241389
-0.058828883 -0.04853558 0.014998736 -0.07220453 -0.049496148 0.20623517 0.012835152 0.13378857
-0.091625296 0.040556274 0.23897989 -0.05847619 0.035708636 0.03497859 0.13106488 -0.020340107
-0.08448486 0.09274201 0.08786575 -0.082365245 0.14399287 0.054040715 -0.023425218 0.029170403
0.010979049 0.017464165 0.10822151 -0.069336034 -0.012386574 0.08892614 0.122377105 0.08396546
-0.11284665 0.024267098 -0.07755994 0.024245173 0.14117354 -0.00035361346 0.1917743 0.10819426
0.13981785 -0.030823104 -0.025714817 -0.008213878 0.10042393 0.008913775 0.0066151395 -0.0137284
-0.042141154 0.0024387715 -0.01607706 0.095039 -0.06613951 -0.008800395 0.046689373 0.07664556
0.24148163 0.096864544 -0.011337595 0.014494861 0.054229632 -0.07330112 -0.019596407 0.040044323
0.080523044 -0.07443756 0.2530581 -0.0016735691 0.044053167 0.19115436 -0.020842476 -0.037228413
0.10617728 -0.077929884 -0.038639124 -0.06313819
00000000: ab1a 4e3e e3d4 8ebd 501c ce3d 59d6 013e
00000010: d174 903e f977 8cbd e73d 8bbc eddc ff3d
00000020: ddc4 a63a 06d2 173e 67d3 4ebd 3611 8abd
00000030: f77e 643d be89 90bd 645b 513c 74c3 153b
00000040: f4e6 e33d fb4b 40bb 4338 943b ce3f 0f3d
00000050: 5fec 0f3e c8d8 85bd 7292 4cbd cabc f7bc
00000060: 8ef6 70bd 3fcd 46bd 42bd 753c f8df 93bd
00000070: 79bc 4abd 502f 533e 884a 523c dfff 083e
00000080: 0ba6 bbbd 561e 263d 25b7 743e bb84 6fbd
00000090: 3843 123d b645 0f3d df35 063e 4ca0 a6bc
000000a0: 6606 adbd 86ef bd3d f5f2 b33d 1caf a8bd
000000b0: de72 133e cc59 5d3d 3ee6 bfbc c5f6 ee3c
000000c0: 78e1 333c 0211 8f3c 3da3 dd3d 0d00 8ebd
000000d0: 0ff1 4abc e81e b63d d9a0 fa3d 15f6 ab3d
000000e0: 251c e7bd cbcb c63c bfd7 9ebd d09d c63c
000000f0: cc8f 103e 3265 b9b9 7b60 443e f494 dd3d
00000100: 692c 0f3e bc80 fcbc e1a7 d2bc 8093 06bc
00000110: 10ab cd3d 150b 123c d0c3 d83b 15ed 60bc
00000120: 349c 2cbd ccd3 1f3b 0ab4 83bc cfa3 c23d
00000130: 2774 87bd 882f 10bc 5b3d 3f3d 59f8 9c3d
00000140: f646 773e eb60 c63d 52c1 39bc da7b 6d3c
00000150: e41f 5e3d e61e 96bd a588 a0bc 8405 243d
00000160: 44e9 a43d b872 98bd d590 813e a95b dbba
00000170: 1871 343d f8bd 433e d7bd aabc d27c 18bd
00000180: 7973 d93d b499 9fbd 0f44 1ebd 984e 81bd

fc_out.weight f4 [10, 100]
-0.011179793 -0.12211735 -0.08915391 -0.10537147 -0.14556128 -0.050282888 0.13298059 0.16270089
-0.06686453 -0.20239437 0.023425821 -0.03329274 0.4118969 -0.25853437 0.37501812 -0.20240742
-0.2214218 0.0384733 -0.22263655 -0.050159916 0.012788446 -0.007881368 -0.017882545 -0.23473154
-0.42777777 -0.03582106 -0.07271997 0.09163135 0.22076857 -0.20150094 0.09063249 -0.23748563
-0.12413357 -0.094154894 -0.0050364016 0.020765938 0.054876525 -0.3508668 0.30469894 0.15165125
0.0597574 -0.19958867 -0.3325084 0.074681364 -0.04959369 -0.14995791 -0.05230061 0.13122927
0.35783443 0.3830934 0.17161834 0.042439073 0.17477003 0.057147484 0.04937232 0.037890848
0.19348891 -0.057830118 0.060983583 0.07245675 0.12345763 0.2201485 0.1313452 -0.13228394
-0.22910656 -0.046593096 0.037378073 0.20660037 0.43150103 0.049142152 -0.019790618 -0.35813946
0.049032155 0.04591692 -0.06192905 0.2733311 0.081703134 0.06541043 -0.22765428 -0.15344818
-0.40122363 -0.032426506 0.12160447 0.23068987 -0.27444673 0.13787368 0.03678679 0.0034825392
0.15561768 -0.037166473 -0.44594717 -0.08007161 0.4171701 -0.2128004 0.04324619 0.083473615
0.15950407 0.017439552 0.21232238 0.1606414 -0.19494621 0.022944408 -0.14796583 0.17166375
0.23451987 0.051812265 -0.4213974 -0.22714564 -0.08093268 0.04666903 -0.0056673298 -0.053876005
-0.36460775 -0.06951802 -0.299036 0.25795308 0.16486828 -0.17211989 -0.080854796 -0.29184452
0.28243017 -0.05173322 -0.0051738443 -0.13974668 -0.31166738 0.12856133 -0.09140756 0.05705835
-0.065588176 0.2767975 0.28184396 0.514627 -0.106714465 0.015397527 0.3099628 -0.012171821
0.09303194 -0.13264284 0.004613316 -0.25575843 -0.12428181 0.1830083 -0.12987463 -0.03411694
0.10059016 0.092121765 -0.20207116 -0.13566175 0.07242706 -0.37345544 -0.13859847 0.08721734
-0.031932548 -0.26243424 0.035306025 0.053636283 -0.13780524 0.0010079605 -0.015927328 -0.062269963
0.16121916 -0.18796211 0.28270352 -0.14278038 0.267204 -0.08060095 0.05385131 -0.031945106
-0.17707942 -0.0654255 -0.13268648 -0.3385499 -0.047167677 -0.033651628 -0.069782905 -0.20018563
-0.086718835 -0.21554194 -0.0845643 0.25071704 0.7584879 0.035411716 0.08071438 -0.02585223
0.09215976 -0.02093022 0.020533483 0.012489538 0.01210318 -0.00897902 0.30082256 0.029107016
0.02317907 0.46993625 0.08497601 -0.41345716 0.07976539 -0.007262407 -0.1687239 -0.048274126
-0.20489034 -0.2877446 -0.13733022 0.05218103 -0.36248788 0.07393532 0.3212886 -0.31787318
0.16522335 -0.27839866 0.04596319 -0.041062273 0.17167561 -0.002582631 -0.23616113 -0.13403597
0.24095121 0.07868638 -0.26171583 -0.017800288 -0.257536 0.09290993 -0.0044140876 0.071311474
0.08927753 -0.0037699745 0.08894865 0.09010438 0.30431113 0.43096805 -0.24737495 0.05471656
-0.026675463 0.14226288 0.3955073 -0.04392753 0.041189473 0.120815806 -0.298893 0.3521194
-0.01314421 -0.3101703 0.02480494 -0.01637788 -0.35025594 0.29992425 -0.08024975 -0.06207423
0.11667508 -0.19291309 -0.032764386 -0.004733412 0.3023249 -0.23503914 -0.12269875 -0.062429637
00000000: 732b 37bc a918 fabd 5396 b6bd ffcc d7bd
00000010: 040e 15be 6ef5 4dbd 102c 083e 109b 263e
00000020: 45f0 88bd 7840 4fbe 82e7 bf3c f85d 08bd
00000030: 27e4 d23e 9e5e 84be 6002 c03e e443 4fbe
00000040: 65bc 62be 2e96 1d3d d6fa 63be 7c74 4dbd
00000050: a186 513c da20 01bc 6a7e 92bc 775d 70be
00000060: b005 dbbe 1bb9 12bd 35ee 94bd 38a9 bb3d
00000070: 2811 623e 4356 4ebe 879d b93d 6f2f 73be
00000080: be39 febd 48d4 c0bd 6608 a5bb 541d aa3c
00000090: 35c6 603d d0a4 b3be 8001 9c3e 774a 1b3e
000000a0: 2dc4 743d f960 4cbe 8a3e aabe 8bf2 983d
000000b0: c122 4bbd 918e 19be 2a39 56bd f760 063e
000000c0: 1336 b73e d124 c43e b8bc 2f3e 98d4 2d3d
000000d0: eaf6 323e 7b13 6a3d a13a 4a3d 6f33 1b3d
000000e0: f521 463e 46df 6cbd ecc9 793d 3464 943d
000000f0: 5bd7 fc3d 9c6e 613e 5b7f 063e 7175 07be
00000100: e99a 6abe 67d8 3ebd c019 193d 0c8f 533e
00000110: b4ed dc3e 4849 493d ef1f a2bc 0e5e b7be
00000120: f1d5 483d 6113 3c3d 51a9 7dbd 0ef2 8b3e
00000130: f953 a73d e7f5 853d 341e 69be 8521 1dbe
00000140: 2f6d cdbe a8d1 04bd c40b f93d f739 6c3e
00000150: 4884 8cbe c22e 0d3e bfad 163d 503b 643b
00000160: 3e5a 1f3e df3b 18bd 3053 e4be 96fc a3bd
00000170: 5297 d53e 59e8 59be eb22 313d 37f4 aa3d
00000180: 0955 233e 64dd 8e3c 0a6b 593e 2e7f 243e
00000190: fb9f 47be e9f5 bb3c 5b84 17be 9fc8 2f3e
000001a0: fa25 703e 1939 543d 66c1 d7be de98 68be
000001b0: 08c0 a5bd 0628 3f3d 02b5 b9bb 16ad 5cbd
000001c0: dead babe 775f 8ebd 3f1b 99be 6d12 843e
000001d0: 3bd3 283e 3240 30be 3397 a5bd a56c 95be
000001e0: b09a 903e 37e6 53bd 5a89 a9bb c119 0fbe
000001f0: de92 9fbe 95a5 033e e333 bbbd 04b6 693d
00000200: 1853 86bd 67b8 8d3e da4d 903e 98be 033f
00000210: 1d8d dabd e945 7c3c 72b3 9e3e 516c 47bc
00000220: 8887 be3d 86d3 07be 4d2b 973b c5f2 82be
00000230: 7687 febd 8766 3b3e dbfd 04be 34be 0bbd
00000240: 3702 ce3d 56aa bc3d beeb 4ebe eaea 0abe
00000250: a354 943d 8d35 bfbe c2ec 0dbe 019f b23d
00000260: b4cb 02bd c85d 86be 0d9d 103d b8b1 5b3d
00000270: d11c 0dbe 8b1d 843a 077a 82bc ca0e 7fbd
00000280: a316 253e 2479 40be 84be 903e 0535 12be
00000290: f6ce 883e 1c12 a5bd 3193 5c3d dfd8 02bd
000002a0: 4f54 35be cefd 85bd f7de 07be 6a56 adbe
000002b0: e532 41bd 4ad6 09bd 57ea 8ebd 76fd 4cbe
000002c0: a599 b1bd 07b7 5cbe 0c30 adbd fc5d 803e
000002d0: 432c 423f e00b 113d 954d a53d 0ec8 d3bc
000002e0: 42be bc3d da75 abbc d635 a83c eba0 4c3c
000002f0: 6b4c 463c bd1c 13bc 6a05 9a3e d671 ee3c
00000300: 08e2 bd3c 7c9b f03e e707 ae3d a8b0 d3be
00000310: 095c a33d 7cf9 edbb f5c5 2cbe 17bb 45bd
00000320: c6ce 51be 4353 93be 4ba0 0cbe c7bb 553d
00000330: 0398 b9be 676b 973d f07f a43e 46c0 a2be
00000340: 4f30 293e 458a 8ebe e643 3c3d ea30 28bd
00000350: bbcb 2f3e 5c41 29bb 39d4 71be ba40 09be
00000360: eabb 763e 5326 a13d 9eff 85be e9d1 91bc
00000370: c2db 83be 9047 be3d 0da4 90bb c00b 923d
00000380: 23d7 b63d ad11 77bb b62a b63d a588 b83d
00000390: abce 9b3e d8a7 dc3e dc4f 7dbe 791e 603d
000003a0: 8086 dabc 5cad 113e ef7f ca3e 5bed 33bd
000003b0: 4bb6 283d 476e f73d 8108 99be fe48 b43e
000003c0: d05a 57bc a4ce 9ebe bb33 cb3c e72a 86bc
000003d0: bf54 b3be ac8f 993e fb59 a4bd 8c41 7ebd
000003e0: 58f3 ee3d 028b 45be f333 06bd bd1a 9bbb
000003f0: 54ca 9a3e 1aae 70be 7b49 fbbd 38b6 7fbd

fc_out.bias f4 [10]
-0.2086421 0.36746332 -0.009843135 0.00025726174 -0.036525216 0.16508347 -0.1311848 0.15317585
-0.3280122 -0.028782139
00000000: 46a6 55be 2724 bc3e 1a45 21bc 16e1 8639
00000010: 779b 15bd a40b 293e 4f55 06be 21da 1c3e
00000020: 37f1 a7be 85c8 ebbc
