Neural_Networks_Adversarial_Attacks_Defense/saved_models/fc_model_vs_FGM.pt (torch, 401711 bytes, 8 tensors)

fc1.weight f4 [100, 784]
00000000: a062 1bbc 0ecb 65bb b9de 79bc 1199 92bc
00000010: 30d4 af3c 834c 5dbc 9ae3 64bc ee29 4ebc
00000020: 10c1 a3ba aced 22bc 0546 71bc 9619 d5bc
00000030: 3c07 ccbc ff6e 20bb 5897 033d ae3a aa3c
00000040: 87fa 023c 8a4c 47bd d916 0ebd 48db aabc
00000050: bd8e 633a 5c8f b0bc 54ea c03c 7fbc 2cbd
00000060: 82b0 b5bc 60db 5dbd cf3c 11bc 07c1 41bd
00000070: fd10 7dbd dd50 a3bd e722 68bd dc94 05bd
00000080: 0b90 9cbd f087 5cbd eb57 41bd cde2 70bc
00000090: 1994 8abc 63ee ebbb 2e18 edbc 607a 863b
000000a0: 5138 823c 10b5 54bc 784b dfbc 04c7 7ebc
000000b0: 1994 f6bb 854f 0abd 338f 96bc 822f efbc
000000c0: bfc0 30bd 2115 033d 5f40 1fbd 367f 033d
000000d0: d002 85bd 14ed c5bc a113 dfbc 7dd1 98bd
000000e0: 9e21 14bd 9928 85bd 1951 83bc 80cb 81bd
000000f0: 8ac8 5abd c7fd febc 08a7 8cbc 53ea 5dbd
00000100: 1f58 9d3c e819 9dbc 3024 8d3c 8eb0 89bc
00000110: 5977 0b3d 4954 153c f17c 19bc c277 e8bb
00000120: d2af 9a3b 9034 de3a adc4 493c d45a 34bc
00000130: ab61 26bb 71a8 65bd 4fc6 c9bc 9d86 0bbd
00000140: cb17 043c 27e3 50ba 080e 31ba 5e55 8cbc
00000150: 46e1 e1bc 5f8f a9bc 06a1 73bc 1e4d 0c3b
00000160: fb0c 9ebc 2406 f8bc e802 8dbc 2b85 f63a
00000170: d7dd d83b e82c 50bb b3e9 9f3c 6b1b e73c
00000180: 580d 67bc ad3f d13b 8fb9 b73c 7bef 943c
00000190: 2c33 fdbc cbaf ef3c 2b9e 37bc 3955 e33a
000001a0: 7073 51bc add7 25bd b209 5abc e149 03bc
000001b0: 8803 84ba 5c26 47bd f146 e5ba b83a 0fbd
000001c0: 6739 433d b64c 2f3c 84c9 523d cecc 043d
000001d0: 095b 4a3d ae29 ea3c 8518 afbc 2e41 0639
000001e0: 554d ca3b 0b59 253b a0bf c0b9 c978 193d
000001f0: 964b c33b 64d7 153d 2383 6cbb a601 c5bc
00000200: b328 ca39 ffe6 8cbc 3e9c e03b 38dd fcbc
00000210: d8a6 283c 93c9 05bd 7c6b 42bd 39da 90bc
00000220: c75c 25bd ae2a 4d3c 1bae 2ebd ac93 94bc
00000230: 3e39 ea3c 79af f43c f50d d13c cb2c ddbc
00000240: 8a15 413d b7b6 46bc 3709 a5bc c706 b3bc
00000250: e057 053c 50b7 36bc 3f6a c0bb dc91 2bbb
00000260: 9c2d 98bb f6d3 153d 576a 6d3c baf2 36bc
00000270: 89a3 75bc 6efc ffbc badf 2dbd 7fcd 903b
00000280: c355 cebc 817b 233d 56ff 0bbd 493f aebc
00000290: b2c8 36bd 525f 1cbd 1bc4 3a3d 9768 c3bc
000002a0: e5ee cbba 6165 dbbc e4d2 333c ae67 7ebc
000002b0: 6837 703c e192 c53c e08d 683b 20e2 09bd
000002c0: 4d4d 873c 9075 a23c d874 a1bc be9c ee3c
000002d0: 2426 573a 0384 cb3b 3bb5 01bc 4e91 5d3b
000002e0: 3df7 8dbc d462 25bc 5a1a 863c 364e 0e3a
000002f0: fd39 6ebb c55b 5f3c 46f2 913c 4e56 cc3b
00000300: 64c5 01bc 68bc f9ba 58ef 56b9 a119 de3a
00000310: fe97 2bbd 90fb 81bc 0543 1ebc 680d 713b
00000320: 54d5 8b3a cfd6 30bd 1e30 833c ca27 07bc
00000330: 906a 893c 1e0e 92bc a93f 033d 374e efbc
00000340: 1f69 76bc 2bd5 09bc 5fb3 8abc 6e3c 863c
00000350: 2fb0 c53a 5b02 3fbd 2be1 57bd a7a2 b9bc
00000360: c55b e1bc 7ec8 acbc 6949 913c 8421 b03c
00000370: bcc7 59bb 4679 19bb 40ec 193d ea27 c939
00000380: 6b1a 6638 565e 7abc 2bdc 0bbd 2b3c c5bc
00000390: 4128 0cbd 2740 f1bc baff ea3c 83ab 1c3c
000003a0: 7284 6fbc dcde 67bc 18ba 0b3c 01da 9abc
000003b0: b096 ccbc bdcd c9bc ad88 edbb 32a7 043c
000003c0: f0c8 943c 52af 5abc 42d1 3cbd 5670 17bc
000003d0: dca5 1e3d 220a 623d aa4d ed3b 115c 033d
000003e0: 884d 133b 415e 903c ddd0 9bbb 661f 483d
000003f0: ad01 d2bc 08b9 053d b1ed e13c ff16 9bbc
-0.009483963 -0.0035063657 -0.015250855 -0.017895253 0.021463484 -0.013507011 -0.01397028 -0.012583239
-0.001249345 -0.009944361 -0.014726167 -0.026013177 -0.024905793 -0.0024480221 0.032126755 0.020779934
0.007994301 -0.048656978 -0.034689758 -0.020856515 0.00086806325 -0.021552734 0.023549236 -0.04217195
-0.022178892 -0.05416429 -0.008864596 -0.047303226 -0.06178378 -0.07974408 -0.05667391 -0.032612666
-0.076446615 -0.053840578 -0.047202986 -0.014702511 -0.016916322 -0.007200049 -0.028942194 0.0041039437
0.015895994 -0.012982622 -0.027257666 -0.015550379 -0.007524979 -0.033767242 -0.01837883 -0.029197458
-0.043152567 0.032002572 -0.03887975 0.03210374 -0.06494677 -0.0241609 -0.02723104 -0.07461832
-0.036164872 -0.06501884 -0.016029881 -0.06337643 -0.053413905 -0.03112687 -0.01716949 -0.054178547
0.019207058 -0.019177392 0.01722917 -0.01680782 0.034049366 0.009114333 -0.009368167 -0.0070943544
0.0047206664 0.0016952921 0.012314958 -0.011007983 -0.0025387804 -0.05606884 -0.024630694 -0.034063924
0.008062313 -0.00079684186 -0.0006754105 -0.01713055 -0.027573239 -0.020698247 -0.014869934 0.002140827
-0.019293299 -0.030276366 -0.0172133 0.0018807998 0.0066182422 -0.0031765047 0.019520616 0.028211316
-0.0141023025 0.0063857646 0.022427348 0.0181806 -0.03090819 0.02925863 -0.011207144 0.0017344124
-0.01278387 -0.040488888 -0.013307976 -0.00801322 -0.0010071853 -0.048620567 -0.0017492456 -0.034968108
0.047662165 0.010699442 0.05146171 0.03242188 0.049403224 0.028584328 -0.021373997 0.00012803517
0.0061737695 0.0025230076 -0.00036763866 0.037468705 0.0059599383 0.036582366 -0.0036088906 -0.024048638
0.00038558766 -0.017199991 0.006854563 -0.030867204 0.010293685 -0.03266294 -0.047465786 -0.017682182
-0.040371682 0.012522383 -0.04264651 -0.018136822 0.028591748 0.029868828 0.02551935 -0.026998898
0.047139682 -0.012128524 -0.020145996 -0.021853818 0.008138627 -0.011152104 -0.0058720405 -0.0026179468
-0.004644109 0.036579095 0.014490685 -0.011166269 -0.014992603 -0.031248298 -0.04244969 0.0044190283
-0.025187379 0.039912704 -0.034179054 -0.021270411 -0.04462499 -0.038176842 0.045597177 -0.023853583
-0.0015558867 -0.02678174 0.010975573 -0.015527649 0.014661647 0.024117889 0.0035484955 -0.033662915
0.016516352 0.019831449 -0.019709036 0.029127475 0.00082072825 0.0062108054 -0.007916744 0.0033808532
-0.017329806 -0.010094363 0.016369987 0.00054285245 -0.0036350482 0.013632719 0.01781572 0.0062358743
-0.007920597 -0.0019053342 -0.00020497793 0.0016944894 -0.041892998 -0.015867025 -0.009659533 0.0036781672
0.0010668435 -0.043173607 0.016014155 -0.008249233 0.016774446 -0.017828997 0.032043133 -0.0292121
-0.015039711 -0.00841264 -0.016931234 0.016386237 0.0015082414 -0.046633106 -0.05270497 -0.022660566
-0.02750958 -0.021091696 0.0177352 0.021500356 -0.0033230623 -0.0023418232 0.03757882 0.00038367446
5.4860877e-05 -0.0152812805 -0.034145515 -0.024076542 -0.034218077 -0.029449536 0.028686393 0.009562376
-0.01461898 -0.014152255 0.008528255 -0.01890278 -0.024974197 -0.024634236 -0.007248959 0.008096503
0.01816222 -0.013347464 -0.046098 -0.009243092 0.038732395 0.055185445 0.0072419243 0.032070223
0.0022476632 0.017623069 -0.004755123 0.04885807 -0.025635565 0.032647163 0.02757916 -0.018931864

fc1.bias f4 [100]
00000000: 6f37 9bbc 91db 223d a9da b23c e479 7f3d
00000010: be00 083d 8cee 48bc 4f21 91bc 4ef4 d33c
00000020: 62e8 c4bc 1d52 573d f697 833d 249d 333d
00000030: 01e3 de3d ae87 a63c dfab 1b3d fe6d d1bc
00000040: 2ff1 42bc 4cc5 81bc 09e8 943c 7921 a03d
00000050: cb57 743d 8b51 413d a71a 373c c7ac cf3d
00000060: b1f5 433d 9076 bcbd 1d9b b83c a31d 14bd
00000070: fe90 8f3d 01cb 873d e73e 90bc 6581 053d
00000080: 787c 6ab8 8f69 1a3e 5b8f 803b 4a85 ea3c
00000090: a781 bb3d 29f3 a63c bc89 353d 116a 8cbc
000000a0: 49a9 a33d b9cb 38bd 5fbf ab3d 7898 79bc
000000b0: 00c2 7f3c cd27 f038 a67a 97bd 77c2 22bc
000000c0: a192 92bc 48e2 2f3d c474 823d 1605 573d
000000d0: a897 e53c ccc6 82bc 16a7 543c 4e4a 5b3d
000000e0: 81fe 79bd bf51 d03c f255 efbc 9aa3 e33d
000000f0: f068 633c ae63 a5bc af45 bebc 80d1 e13d
00000100: 0b57 4a3d c8ce b63d 3f02 eebc 0d2d 4d3b
00000110: 44b6 8dbc e2ff 2bbd 6298 04bd 32b0 9cbb
00000120: d86d 47bc a6e2 b4bc 1c26 643d 4d2c 44bd
00000130: 12ca 1d3c bfaf af3d 5f3c 233d c336 09bd
00000140: 2ceb 163c 3fef 94bc 0fef f23d 00be 6c3a
00000150: baed c93c b1ae 603d 2b8d e8bc d897 643c
00000160: b088 173c 9756 3bbb 2ba4 b43c 0991 2f3d
00000170: 9b51 663d 8100 843d 2a87 223d 0446 1ebd
00000180: eeb1 79bc 1ab3 bebc 6e30 efbc 1474 47bc
-0.018947331 0.039760176 0.02183278 0.062372103 0.033203833 -0.012263905 -0.017716078 0.02587333
-0.02403659 0.052568544 0.064254686 0.043851033 0.10883141 0.020328369 0.038005706 -0.025565144
-0.011898323 -0.015841149 0.01817705 0.078188844 0.05965404 0.047196906 0.011175788 0.101403765
0.04784173 -0.092023015 0.022534901 -0.036161076 0.07010077 0.06630517 -0.01760812 0.032594103
-5.5905868e-05 0.1507933 0.0039233393 0.02862801 0.091555886 0.02037962 0.044320807 -0.01714042
0.07991273 -0.04511616 0.083861105 -0.015234105 0.015610218 0.00011451505 -0.0739644 -0.009934059
-0.017892184 0.042940408 0.063699275 0.052495085 0.028026417 -0.015963934 0.0129792895 0.05353766
-0.06103373 0.025429605 -0.029215787 0.11115189 0.0138799995 -0.020189133 -0.023226587 0.11026287
0.049399417 0.08926159 -0.029053805 0.003130737 -0.017298825 -0.041992076 -0.032371886 -0.0047817463
-0.012172185 -0.02208073 0.055700406 -0.04789381 0.009630697 0.08578443 0.039852496 -0.03349949
0.009211343 -0.018180488 0.11862003 0.0009030998 0.02464949 0.0548541 -0.028387627 0.013952218
0.009248897 -0.0028585547 0.022050938 0.042862926 0.05623017 0.064454086 0.039679684 -0.03864099
-0.015240176 -0.023278762 -0.029197898 -0.012173671

fc2.weight f4 [100, 100]
00000000: b421 dd3c e907 a8bd 0f5d 483e 3b9e 7e3d
00000010: 6914 e33d 9cf2 67bd e1d3 7f3e 9d4f d83c
00000020: 2a5f a5bc aa71 3c3e 5867 4e3d b20c 233e
00000030: 53fc 303d 239f 0dbe 869d 05be d6eb 61bd
00000040: 24db b53c 9e25 2b3e afb8 12be 0708 8fbc
00000050: 6d11 39be 60e1 18be fe6a 30bd ff93 32bd
00000060: 73d8 fb3d b8c4 d7bd 2747 dfbc 873f 033d
00000070: 2acc 713e 784c 903d 587c 10bd dafd 133e
00000080: b61c 04be 6985 6d3e 4500 e1bd ab16 a2bd
00000090: 808b a63d 6f00 c03d 8b61 e13d f4ef 5c3d
000000a0: d7f5 aab9 77a4 dfbd 062c d23d 1a44 693d
000000b0: 81f1 a8bd 30f3 dd3c 30e0 12be b68e 24bd
000000c0: 1b20 843b dfb9 ef3d 6da0 80bd a8ba 36bd
000000d0: f68b 0c3d 5ffc 9c3d 1e49 cbbc bcf4 1a3e
000000e0: a110 df3d e7ca be3c 73cf 4b3e 130e debc
000000f0: 8511 23be e83c f23c 0305 7c3d 7cbb a1bc
00000100: 3bc6 f73c 0b6e 553d 529c 31bd 4897 a1bd
00000110: 7575 d53b 2621 203e 22c1 c1bd 9fca 8d3c
00000120: ee61 ccbc 75b5 2b3b c33f 4f3d 9c25 c4bd
00000130: d7e6 98bd f171 023e 4581 9fbd 8807 68bd
00000140: d13e f93d da41 e03b 99a3 4f3e 421e 6f3d
00000150: f481 3c3e 9ba7 30bd a954 bdbd 66b4 0abd
00000160: 693d d83b f952 1ebe 4aa8 8cbd 7f0c a83d
00000170: b3b8 80bc 8e74 7c3d d118 99bd 6ace 32bd
00000180: 83d6 6c3d 7f57 123e 5212 a23d 2793 833e
00000190: 5f46 b0bb e758 d73c de97 75bd 75c0 73bd
000001a0: 1c09 ed3d 93f6 ad3d a012 bcbd 75c0 81bd
000001b0: e98f be3d 3b23 803c c68a a6bc ce7d 453d
000001c0: c49d 0bbd 58b7 27bd 1b37 0e3e 4ef4 b33d
000001d0: bf3a 943d 0f70 b8ba e5e0 3dbc 0572 343d
000001e0: 080c 1a3e 0a8b b0bc 4a6b 35bd 16c6 16bd
000001f0: ee54 a43d fb59 f53c 9210 f2bd d601 db3c
00000200: daf8 3ebd 69f2 5bbd 6b6c 0dbe de75 9fbd
00000210: 1408 6e3d f752 acbc ad2e bb3d 1bac 773d
00000220: 9069 973d c663 973d 98b9 8e3d efd4 1e3d
00000230: bc24 61bd a79a ddbc a020 953c 39d8 d53c
00000240: 3053 cdbc 415a 903d fc65 10be 3c6c 13bd
00000250: d226 86bd 45bd b3bc e373 1a3c 34f8 adbc
00000260: 66b1 0c3d 235e 8abd ab4a 04bb 55be 62bd
00000270: d3bb 40bc 75ac e43d 1b23 993d bbba 5e3b
00000280: 2274 be3d d166 0fbe 29a6 bfbb 1dc6 613d
00000290: ccc5 cb3d 264d 00bd 114c 52bd b38c 8d3b
000002a0: c151 63bd b6f7 a33c d4cc 643d 010b 8ebd
000002b0: 0cfa 56bd 02e8 843d 98a7 973d ef63 313d
000002c0: 787f 1c3c 1d35 5c3c 4c1f 97bd 068b 3fbd
000002d0: a8f1 353c cc98 babc a900 58bd afb7 b73c
000002e0: 908b 94bd 4f7e 103d 5d29 9fbc eadf 29bd
000002f0: e718 4abd d006 68b9 ddbb a53c 6f7b 8dbd
00000300: bc38 0abe 117e d23d a391 bc3c 443b f63d
00000310: 4d41 a6bd d06a fb3b b846 803c dfa5 a73d
00000320: 852a c8bb a3e9 98bd 51e5 3d3e 8633 6e3d
00000330: 5f60 4d3d 5e5a c0bd 24e4 053e 20d4 a13d
00000340: a0d9 c03d 0d0e 8fbc f6ae 8f3d fb41 0a3e
00000350: 91c1 953d 9a87 31be 760d 23bd 66ae f23c
00000360: 2f99 b6bd e2fa c93d 04c7 08bd 132f 6bbd
00000370: 849f 88bd a973 c53d 27d4 8b3d c694 053d
00000380: ad06 9cbd 441a 3a3b 4213 ae3d 3523 633d
00000390: 1a03 213e d7bf b53d 6c68 a83d d590 1d3e
000003a0: b047 d1bd 0c2d 9a3d 1abf a2bd ffd2 00be
000003b0: ff7d 873d 6b1f 04bd fd31 bf3b 0e45 2b3d
000003c0: 55fc 3a3d 6617 c8bd 5607 61bd 3d97 5a3d
000003d0: 0916 a43d 9dd4 33bc f5df 5d3d e4d5 123e
000003e0: 6452 29bc 3cb4 113e d070 a83d a89c 81bd
000003f0: 095d 41bd d256 b6bc e24d e1bd 1631 10bd
0.02699361 -0.08204634 0.19566749 0.06216262 0.11087877 -0.056627855 0.24983169 0.02640515
-0.02018698 0.18402734 0.050391525 0.15922812 0.043209385 -0.13830237 -0.13048372 -0.05515655
0.022199221 0.16713569 -0.14328264 -0.017459882 -0.18073054 -0.14929724 -0.043070786 -0.04359817
0.12297144 -0.10535568 -0.027255608 0.032043006 0.23613039 0.07045835 -0.035274833 0.14452305
-0.12901577 0.23195423 -0.109863795 -0.0791448 0.08132076 0.09375083 0.11004933 0.053939775
-0.00032608092 -0.10920041 0.10262303 0.056949712 -0.08249188 0.0270935 -0.14343333 -0.040175162
0.0040321476 0.11705374 -0.06280599 -0.044611603 0.034313165 0.076653235 -0.024815138 0.15132421
0.108918436 0.02329011 0.19903354 -0.02710632 -0.15924652 0.029570058 0.061528217 -0.01974272
0.03024589 0.0521069 -0.04336197 -0.07890183 0.006514246 0.15637645 -0.09460665 0.017308531
-0.02494904 0.0026200686 0.050597917 -0.09577486 -0.07465904 0.12738778 -0.07788328 -0.056647807
0.121701844 0.0068437876 0.20277251 0.058378465 0.18408948 -0.04312859 -0.09244663 -0.033863448
0.0065991175 -0.15461339 -0.06868036 0.082055084 -0.015713071 0.061634593 -0.074754365 -0.043653883
0.05782176 0.1429119 0.079136506 0.25698206 -0.0053794826 0.02628751 -0.059959285 -0.059509713
0.11574003 0.08494296 -0.0918324 -0.063355364 0.093047924 0.0156418 -0.020329844 0.04821568
-0.034086004 -0.040946335 0.13888209 0.08786832 0.072377674 -0.0014071482 -0.011589264 0.04405405
0.15043652 -0.021550674 -0.044291772 -0.036810003 0.080240116 0.029950133 -0.11819567 0.026734274
-0.046624042 -0.053697977 -0.1381089 -0.07786153 0.058113173 -0.021035654 0.09139762 0.060466867
0.07393181 0.07392077 0.06968993 0.038777288 -0.054966673 -0.027051283 0.018204033 0.02610408
-0.025064081 0.070484646 -0.14101404 -0.035991892 -0.06550373 -0.021940837 0.009427044 -0.021236517
0.034348868 -0.067562364 -0.0020186107 -0.055357296 -0.011763531 0.11165706 0.07477399 0.0033985812
0.09299494 -0.14004065 -0.0058486653 0.055120576 0.09949836 -0.031323574 -0.051342074 0.004319751
-0.05549789 0.020015579 0.0558594 -0.069356926 -0.052484557 0.064895645 0.07405013 0.043308195
0.009551875 0.013440398 -0.07379016 -0.046763442 0.011104979 -0.022777937 -0.052735005 0.022426454
-0.07253182 0.035276707 -0.019428903 -0.041473307 -0.049340155 -0.00022127782 0.020231182 -0.06908309
-0.13498205 0.102779515 0.023018664 0.12023023 -0.08117924 0.007672645 0.015658721 0.08185934
-0.0061085843 -0.07466438 0.18544509 0.058154605 0.050140735 -0.09392236 0.1307531 0.07901788
0.09416509 -0.017462755 0.07015793 0.13501732 0.073123105 -0.17336884 -0.03980776 0.029624175
-0.08915936 0.09862305 -0.03339292 -0.05741794 -0.0667105 0.09641201 0.06827574 0.032612585
-0.07618461 0.0028397003 0.08499767 0.055453498 0.1572384 0.08874481 0.08223042 0.1538728
-0.102187514 0.07528123 -0.07946606 -0.12580489 0.06615829 -0.032256525 0.0058348165 0.041813903
0.0456508 -0.09770088 -0.054938637 0.05336689 0.08012015 -0.010975984 0.05416866 0.14339405
-0.010334585 0.1422891 0.08224642 -0.06328708 -0.047207866 -0.022258196 -0.11001183 -0.035203062

fc2.bias f4 [100]
00000000: 5bd5 8f3d 5ea6 203d b627 b9bb 917b c53d
00000010: cb46 70bd faec 6abd e604 b23c f5a7 4c3c
00000020: 576e 203e d1f6 b0bd 1053 8c3b d33c dc3d
00000030: 2c78 983d 1821 e63d 7c84 0ebd e268 c5bc
00000040: ad55 b6bc 04d3 3e3d b533 1a3d 2ae7 253e
00000050: 8d78 c4bd 9389 be3d 9cd0 3d3d a346 b83d
00000060: 53c8 2ebd ffeb f73b 8125 61bd 1166 203d
00000070: 3bfa b83c abc0 a53d c47b d83c 2164 d0bd
00000080: e63b 703c 1d4d 3f3e b640 703b a94e 42bd
00000090: fbd5 8e3d ee6c 1a3e f898 68ba fe06 fe3c
000000a0: bc40 7b3d 6c2f 37bd ec9b fc3d 722c 233e
000000b0: 8777 26bd 816e 1ebd 0056 113e 1516 8bbb
000000c0: f9cf 18bd d660 d53d 19b6 723d adc5 afbb
000000d0: 113d d6bb 778c 36bd c69d 4dbb c0ca 633d
000000e0: ae87 253e 2eae c23d 71c6 693d 95b7 84bc
000000f0: ca6d 9ebd 8edc e4bd 6934 313d 5bd7 73bc
00000100: 1511 5b3d dbfa d2bc f651 43bd 0e15 923d
00000110: cfe9 893d 5d84 423e 5517 2bbd 0b38 b73d
00000120: 03d3 d73d c588 a43d 26a8 183d 560b 43bd
00000130: 6937 203d 78ec 09bd 7897 1f3e 1bcc c13d
00000140: ba6c 623e ce3a 30bc b26e 4cbd 8268 db3d
00000150: 0303 e63d 63f9 583d 0c02 fb3d 4474 393d
00000160: ca0c 163d e8b3 a53c e6dc d63c 369f 003d
00000170: 78e9 aebd 9219 87bd f1cc 7e3d ee61 6cbd
00000180: 8561 433e d40d c33d 6eb3 bbbd c596 1b3e
0.07023116 0.03922116 -0.005650486 0.09642709 -0.058661263 -0.057354905 0.021730851 0.012491216
0.15667091 -0.086408265 0.0042823628 0.10753789 0.07444796 0.11236781 -0.034794316 -0.024097864
-0.02225765 0.04658796 0.037646968 0.16201463 -0.09593306 0.09303584 0.046341524 0.08997848
-0.042671513 0.0075659747 -0.054967407 0.039159838 0.022580257 0.08093389 0.026426204 -0.10175348
0.014662718 0.1868176 0.0036659664 -0.047438297 0.06974407 0.15080616 -0.0008872892 0.031009194
0.061341032 -0.04472296 0.12334427 0.15934923 -0.040641334 -0.038679603 0.14192963 -0.0042445757
-0.037307713 0.104188606 0.059255693 -0.005364141 -0.0065380414 -0.04456755 -0.0031374558 0.05561328
0.16165039 0.095058784 0.057074014 -0.01620082 -0.07735784 -0.1117488 0.043262873 -0.014882888
0.053483088 -0.025754383 -0.047685586 0.07132922 0.067340486 0.18995805 -0.041770298 0.08946236
0.10538294 0.08033899 0.037269734 -0.047618233 0.039115343 -0.03367278 0.15585124 0.09462758
0.22111788 -0.010756208 -0.049910255 0.10713293 0.11231043 0.05297221 0.1225625 0.045276895
0.03663329 0.020227388 0.02622838 0.031401835 -0.085406244 -0.06596674 0.062207166 -0.05771058
0.1908017 0.09524122 -0.09165083 0.15194233

fc3.weight f4 [100, 100]
00000000: 8077 9abc 4848 c53d be80 7bbd b464 893d
00000010: e992 ab3c 20e1 70bd 0ac5 51be f047 e2bc
00000020: 1d14 a73d 15b2 d13b 7d6f 3fbe 837b 453d
00000030: 494c 18be f97b 97bd 6656 9cbc 01ad 033e
00000040: 2fb9 cbbd 3e7d a83c d752 02be 7246 cebc
00000050: d3fe 7e3d 3dad bc3d c9ad 333e b76d b73d
00000060: 2406 913d c1f3 b8bd 2aed 133d 8a79 eebd
00000070: db82 86bd 8f48 3dbd cb1a 64bc acf5 93bd
00000080: df25 5dbd b37a 00be 394c 343d 10ac 683d
00000090: 8714 753d 96fd 0c3e a823 d63d 9e2c 57bc
000000a0: 9bd9 8e3b eca5 2c3d a7aa 3f3c 91ed 25bd
000000b0: fc85 01be 5357 9cbd a40f 233d 7eed 9d3d
000000c0: ef06 943d 661c 553d 5e5c 173e 802d 2b3e
000000d0: 92e5 de3d 8ea7 4bbd 7842 4dbc 2500 00be
000000e0: 76b0 e03c 8341 753a 9bc1 25bd 5ef2 143d
000000f0: ae54 9fbd c662 2dbc 9a8b c83d bee2 bd3d
00000100: 7eb9 4c3e 385d 4dbd d3d2 923d c2ee 9e3d
00000110: 87f9 633e 2053 b43d b726 603c b16e 323d
00000120: 9da4 233e 9f8c 663d c300 30bd dd9c 1e3d
00000130: d495 183e 0f84 eb3d dc64 09bc 03c1 09bd
00000140: 3092 533c 6278 fa3b 9548 843d 02da ad3d
00000150: 55c9 dfbd 6972 96bd 0da3 3a3d afec 24bd
00000160: 7e66 a73d 4278 463d d734 b33d 2169 13bd
00000170: 2ff0 873d 9cf1 ad3c 7fae 053d bbf1 763d
00000180: 77ae dabd 5061 c6bd 57cf 963d 43ac f73c
00000190: 53af 87bd df83 aa3d 7156 633b d84c 193d
000001a0: 9d21 81bc c763 41bc d927 253d b1b0 5fbd
000001b0: 1490 bfbd 1d41 4fbd 57ce a3bd 6f5b a03d
000001c0: 392a 513d d975 a73d 66e3 b4bd 1d20 363d
000001d0: 592d b9bd 25bb 923d 00c8 75bd 387c ad3d
000001e0: 9b1a f6bc 7f09 9f3d 39ff d9bc d40d adbd
000001f0: 2e87 c4bc c745 943d 05f4 23bd c23a 81bd
00000200: 2482 efbc 4d18 433d ddbf 093d 704c 8d3d
00000210: c98b f4bc f229 72bd 9423 d7bc e0e2 9cbd
00000220: 016d 1bbd 76c3 e8bb e275 a63d 034e 80bd
00000230: 5d28 6e3d 758d 7b3d b96e 1bbd 1d3b 103d
00000240: ca11 a3bb effa 47bc 43c7 9e3d ea3b 9abd
00000250: 4a1c 903d 6cf7 bdbd 5e46 813d d885 aebd
00000260: 98f2 4cbd ce18 8bbd 9e2f abbd 3197 963c
00000270: 89ff 36bd 9ed2 933d 9eb1 a53d 0231 a6bd
00000280: 0965 c8bb 9903 b03d 870a da3b 9f95 04bd
00000290: 3abd 473d a928 79bd 51a5 863d d278 563d
000002a0: f388 bfbd 4d3d 18bc 9750 6e3c abf1 493d
000002b0: 717f febc bc16 67bd a6d1 a2bd e904 fb3b
000002c0: de31 553d 161d f2bc a274 743c 6946 80bd
000002d0: d261 7cbd 597d 063d 905b 99bc a89b b5bd
000002e0: e83e bfbd 1a96 37bd 17fb 913d 7e90 94bd
000002f0: 97fd 4a3d 5bc3 493d 9d08 4ebc 8e58 9d3d
00000300: 328d 723d f168 353d cdf5 e0bc 22d6 023c
00000310: 77a3 a7bd 0dcb 5a3d a553 6fba faa7 983c
00000320: 2716 dfbc 9f51 ff3c 30bd 0fbd dc19 bdbd
00000330: 6825 d7bd 5809 5ebd 776f 573d d34c 18bd
00000340: b8ea e83b e351 babc bb7a 59be 70c7 bbbd
00000350: 44ee 7dbd a128 af3d 5f1c be3c c9bc a0bd
00000360: b9e2 f2bd e0bb 80bd 00ac 1c3d 3782 873d
00000370: cefb a43d b0d0 c5bc 1354 22bc 4ddb febd
00000380: 024d 2fbe 3f3f 73bd b6ab 19bd 01fb 25be
00000390: 4e53 eb3d fb83 0e3e 99f7 a73d 7145 e93d
000003a0: ff87 c63c 9836 b33d 405d e6bd 1a51 fa3c
000003b0: e377 33be 1538 5a3e eacd 2a3e ecb5 c03d
000003c0: df89 a5bd ad8b 053e b4cd 50bd 65db 413c
000003d0: 21b0 8c3d 5d32 b6bd b20b 0b3e 0b25 c5bd
000003e0: 789f 9cbd 9737 123e 2e7c 0a3e 940d b83d
000003f0: fff7 2d3c 4a98 68bb f7e1 8c3d 8d3a 50bc
-0.01885581 0.09632927 -0.061402075 0.06708661 0.020944076 -0.058808446 -0.2048532 -0.027622193
0.08158133 0.006399403 -0.18694873 0.048213493 -0.1487285 -0.07396693 -0.019084167 0.12858965
-0.0994743 0.020567533 -0.12726913 -0.025180075 0.062254738 0.0921273 0.17546763 0.08956473
0.07081249 -0.09030867 0.03611485 -0.116442755 -0.065679274 -0.046211775 -0.013922404 -0.072245926
-0.053991195 -0.12546806 0.044018004 0.056804717 0.05983403 0.1376861 0.1045602 -0.013133196
0.0043594367 0.042150423 0.0116984015 -0.040509764 -0.12648767 -0.07633843 0.039809838 0.07711314
0.07227885 0.052029036 0.14781329 0.16716576 0.10883631 -0.04972034 -0.012528054 -0.12500055
0.027427893 0.00093557703 -0.04046784 0.03636395 -0.07779823 -0.010582631 0.09792252 0.09271763
0.19992635 -0.05013773 0.07169118 0.07760383 0.22263156 0.08804917 0.013681105 0.043562595
0.15980764 0.05628645 -0.042969476 0.038723815 0.14900905 0.114997976 -0.008385863 -0.033631336
0.012913272 0.0076437453 0.064591564 0.08488847 -0.10927073 -0.07346041 0.045565654 -0.04026478
0.08173846 0.04845453 0.08750313 -0.03598893 0.06637608 0.021233372 0.032637116 0.060289126
-0.10677808 -0.0968653 0.07363766 0.030233508 -0.06625237 0.08325934 0.0034688974 0.0374268
-0.015763098 -0.011803574 0.040321205 -0.054611865 -0.093536526 -0.050599206 -0.079983406 0.078299396
0.051065657 0.081767745 -0.08832435 0.04446422 -0.090418525 0.07164601 -0.060005188 0.084709585
-0.030041983 0.07765483 -0.026610957 -0.08449903 -0.02399024 0.072398715 -0.040027637 -0.06310035
-0.02923686 0.047630597 0.03363024 0.06899345 -0.029851811 -0.059122033 -0.026262082 -0.076604605
-0.03794575 -0.007103379 0.08127953 -0.062648796 0.058143962 0.0614142 -0.03794739 0.035212625
-0.004976486 -0.012205823 0.0775285 -0.07530959 0.07036646 -0.092757076 0.063122496 -0.085216224
-0.050036043 -0.067918405 -0.08358692 0.01838264 -0.04467729 0.072179064 0.080905184 -0.08114816
-0.00611556 0.08594436 0.006654087 -0.032369252 0.048764445 -0.060829792 0.065745 0.052361317
-0.09352293 -0.009291959 0.014545581 0.04930274 -0.031066628 -0.056418166 -0.079501435 0.0076604974
0.05204951 -0.029554885 0.014920386 -0.0626343 -0.061616726 0.032834385 -0.018720418 -0.0886758
-0.0933817 -0.044820882 0.0712797 -0.07254122 0.04955825 0.04925857 -0.012575296 0.07682906
0.059216686 0.044289533 -0.027460957 0.007985624 -0.08185475 0.0534163 -0.00091295905 0.018634785
-0.027232243 0.03116685 -0.035092533 -0.09233448 -0.105051816 -0.05420813 0.052596536 -0.03718264
0.007108059 -0.022744125 -0.21238224 -0.09168899 -0.061994806 0.08552671 0.023206888 -0.07848508
-0.1185965 -0.06285834 0.03824997 0.066166334 0.080558404 -0.024147362 -0.00990774 -0.12444172
-0.1711922 -0.059386488 -0.037517272 -0.16209032 0.114904985 0.13917534 0.082015224 0.11390198
0.02423477 0.08750647 -0.11248255 0.03055625 -0.17526202 0.21310456 0.16680112 0.09409699
-0.080829374 0.13041563 -0.050977424 0.011832093 0.068695314 -0.08896325 0.1357868 -0.09626206
-0.07647604 0.14279018 0.13523933 0.08986965 0.010618209 -0.0035491162 0.06879037 -0.012709272

fc3.bias f4 [100]
00000000: 7e9c ac3d 6f1d b9bd f95f 253e 2d18 7f3d
00000010: 52c0 1c3d ffc1 2cbd bce3 c1bd e07d c23d
00000020: 1e8d 9e3e f5c2 773b ff88 153e e21e 3bbd
00000030: 72cd 9abd beb1 b6bd 7150 f93d 6dc5 bfbc
00000040: fc60 373e 4c20 8cbb d9cd f33c 8bc0 91ba
00000050: 0b25 28bd 4db7 60bd 7bac b13d 60a1 813d
00000060: a61d 043d fb31 073e 07f1 94bd e8cb 9d3c
00000070: 5cf6 003c 664f 433e dede c7bc f6eb 9abd
00000080: cdd9 ad3d 594a bd3d 4d4a 9abd 4e54 d23c
00000090: fdee e5bb 8c94 823d 9a85 0bbc 3c77 64bb
000000a0: 9f2d 8f3d 5830 a0bd 56c6 9c3d 58d2 bb3c
000000b0: d9b5 1a3e 728e 6fbd 40f9 c1bc 5e1c 90bd
000000c0: 2f9c a6bd e6a3 b93d 713e 143d abdc ebbc
000000d0: 0d43 93bc caa4 b1bd 9379 583d 5e71 9fbd
000000e0: c806 4a3d 6c3e 3fbd cc0a 80bd 5cb1 663d
000000f0: b8ca 453d d4f2 0e3e 1398 56bd 2de5 ca3d
00000100: 2ca3 8ebb f544 45bd 9b81 a53d 593e b73d
00000110: 8612 4d3d 3a3e 8c3e 1e00 b53d 8c8d 013e
00000120: 6412 f43d 2e10 0d3e a0a8 88bc dcd4 86bc
00000130: 5aa8 45bd 9144 b93d d644 ac3d e041 0a3e
00000140: 021a 5d3e 2d03 4ebb 31e6 3e3c b822 a2bd
00000150: c65a b8bd 3048 1a3e 4c15 7a3c 75ed d13d
00000160: e080 313c 8e88 2e3d 48ce f33d a20a 6dbd
00000170: a709 3bbd f9c4 c33c a50d ef3d f516 57bd
00000180: 700a c23c c662 13bd 0937 87bc 5e54 9d3d
0.08428286 -0.09038817 0.16149892 0.062278915 0.03826935 -0.042177197 -0.09467265 0.09496665
0.3096704 0.0037805412 0.14603041 -0.04568375 -0.07558717 -0.089206204 0.12173546 -0.02340957
0.1790809 -0.004276311 0.029761242 -0.0011120004 -0.041050952 -0.05486231 0.08675476 0.06329608
0.032254837 0.1320266 -0.07272535 0.01926227 0.007871237 0.19073257 -0.024398264 -0.07564537
0.08488808 0.09242696 -0.07533703 0.025674965 -0.007017015 0.06375989 -0.00851574 -0.0034861108
0.069911234 -0.07821721 0.07655017 0.022927448 0.15108432 -0.058485456 -0.023678422 -0.070366606
-0.081352584 0.09064464 0.03619236 -0.028791746 -0.017976308 -0.08674009 0.052850317 -0.07785295
0.049322873 -0.04669039 -0.06252059 0.056321487 0.04828903 0.13959819 -0.052391123 0.09906993
-0.0043529477 -0.048161466 0.08081361 0.08947439 0.050066493 0.27391225 0.08837913 0.12651652
0.1191757 0.13775703 -0.01668197 -0.016458921 -0.048256256 0.09046281 0.08411567 0.13501692
0.21591952 -0.0031434998 0.011651562 -0.07916778 -0.09001689 0.150666 0.015263867 0.102503695
0.010833949 0.042610697 0.119045794 -0.05787147 -0.045663502 0.023897635 0.11672524 -0.052512128
0.023686618 -0.03598287 -0.016505735 0.076821074

fc_out.weight f4 [10, 100]
00000000: 952f 493e 9bf9 073d 5f55 b3bd 256a b9be
00000010: 442e 8a3c 044f 953d 8bec 593e e4cf a2be
00000020: 9dea 13bf 0e33 193e b47f 24be a36e f53d
00000030: 75f0 7c3e 2201 bc3c 093e 8b3e 08ad c73e
00000040: 8028 dabd 067a fabd 8fcc 9abd c2c0 3ebc
00000050: d71c 4ebe ece2 ffbd 213b 80bc f02c 5bbd
00000060: 03d8 b3bd 723d b3bd 3aa9 03be 005b 36bd
00000070: f5f5 18be e53e 273d 5d08 05bd e120 de3c
00000080: 5813 db3d 0a0b e2bd 2901 89bd 7964 dd3c
00000090: 42d9 be3e 87ca c7be e36c 803d ba7f 593d
000000a0: e3ec 243e 98ac ecbd e562 4c3c c59b e93e
000000b0: 8c34 8bbd ff0c 493d d771 e6bc 32ea 67bd
000000c0: 1041 603d 9266 babe f46f d1bc 2188 b53d
000000d0: dc78 1bbd e2bb 413d 3373 45be e329 493d
000000e0: 8c8a 023e 4448 363e a4c3 933d ec9f 9abe
000000f0: 05f8 713d a975 3bbe 5310 223e 68cf 1b3e
00000100: f7a5 b93e fb0d b4bc a989 48bc 591d d13e
00000110: 82d8 7f3d 3acc d6be c033 b13e 3038 8d3e
00000120: 6474 adbd 9214 16bc 5c3e 27be 7a30 5f3e
00000130: 932f 2b3d e8a5 b4bc 90e7 25be 2072 92bd
00000140: e20a 34be fc33 903c 7830 d6bd 7d65 ba3d
00000150: 5631 76bc d430 c03d be61 0d3d b50e 9c3d
00000160: 66fe 1e3d ed4c 6bbc 59ef e2be 6892 033e
00000170: dd79 3e3e 0799 643e 1749 493e da0f 9f3d
00000180: 85cf 923d baaa b73d 1fde 05be 34dc ca3e
00000190: 3b9f 8cbe 3fbd b9bd aa81 7a3e b367 51be
000001a0: d7fe 8dbd 52ad 85bd 9cfb 8abe 51f9 d43e
000001b0: d020 033f 95d5 1dbe 861a 7b3e daee f4bd
000001c0: 6e2b 643d a870 0c3d 54db d3bd 93b3 f3be
000001d0: 90d0 22be e7e4 f6bd a789 adbd ac1b 0e3d
000001e0: 3a5d 953c 83bc 3fbd 727d dabc 193b 4b3e
000001f0: a4f4 37be 3ee7 003e e611 383e 880a 86bd
00000200: 2827 833d 0f58 f7bd 6159 78bd 8bd0 a5bc
00000210: 3230 413c 62f8 06bd 58bc 4e3d 7233 b0bc
00000220: 7a83 2e3b b71c 613e 2499 95bd 143e 6cbe
00000230: b3c5 53be 86da cabd 2969 c0bc 54b8 07bf
00000240: 36a7 2a3e 55f6 54be 0577 babd 4bfc 71bd
00000250: d099 a9bd 24a4 5d3e ecf2 e53b 1e78 dc3d
00000260: 07dc b23c 5d8c 66be 1ef1 30be 7e7d 02bd
00000270: aa46 a2be 4f98 03be 50c8 153d 3e33 753e
00000280: 027b 2ebd 8356 96be 4daa 25be 54b8 e93d
00000290: 260d b9be d428 a83d aee2 96be cd23 8bbd
000002a0: 9ebf 2bbe a928 013f 3696 cfbd 3cc2 bbbd
000002b0: ea55 5bbe 4716 98be 0e20 d2bd 0ea5 4c3c
000002c0: f9f4 dd3c 75a8 b73e 6d11 44be 4b16 de3e
000002d0: d94e 173e 1a93 9ebd 1f7f 88bd 545a 8c3c
000002e0: 5969 913d 04eb ab3d e73d 3b3d f5ba 853e
000002f0: d287 c3bc cc13 083e 6d39 1e3f f8f1 9abe
00000300: ee9c 1a3d 9dd1 75be 7ad8 3e3e 20ee 9cbc
00000310: 5909 a7bd 27bb 3b3d eed4 683e 14f8 0abe
00000320: d3a8 643e c369 a5bd 28b4 a8be 3bdd 56be
00000330: f0c3 bebe 89b7 b7bd f0a4 7dbe 7a25 34bd
00000340: ccd2 cd3e 214e 883e 5a2f 8bbe 36f8 953c
00000350: 0b50 c2bd ee54 703d da56 1abe 89c1 2b3e
00000360: 0b5c 86be 8f23 d63e 509c 9dbd 7dc9 e23d
00000370: e40b 42be 5740 b53d 7222 bebd bd00 0abe
00000380: f3ac 543d 03d2 0b3f 9b08 813e 8af1 9c3a
00000390: e3e8 e9bd bbd5 363d 88ff cb3d 25af 893c
000003a0: b790 da3b 0aaa 87be 0dec 58bc 892c 3fbe
000003b0: fb9e 8d3e 1365 8fbe 7a1b aebd 37a2 bebd
000003c0: 01fe 06be 984d 463e cea4 dc3d 571c 413e
000003d0: f849 843d 6376 a93e 5831 093d 4cd6 babd
000003e0: 7c91 3dbd ff41 14be 9ddb 543b de58 51bd
000003f0: 70e2 62bd 1e49 973d b2cd ba3e 1c48 443d
0.19647057 0.033197027 -0.087565176 -0.36213794 0.016867764 0.07290462 0.2128164 -0.31799233
-0.57779866 0.14960882 -0.1606434 0.11983993 0.24701102 0.022949759 0.27195767 0.389992
-0.10652256 -0.122303054 -0.07558548 -0.011642637 -0.20128189 -0.12494454 -0.015653195 -0.053509653
-0.08781435 -0.08751954 -0.12857524 -0.044520378 -0.14937575 0.040831465 -0.03247868 0.027115287
0.10697049 -0.11037262 -0.066896744 0.027025448 0.3727513 -0.39021704 0.062707685 0.053100325
0.1610599 -0.11556357 0.01247475 0.45626655 -0.06797132 0.04908466 -0.028130455 -0.05661983
0.05474955 -0.3640638 -0.025566079 0.08863855 -0.037957057 0.04729832 -0.19282226 0.049112212
0.12748164 0.17801005 0.0721505 -0.30200136 0.05907442 -0.18306603 0.1582654 0.15215838
0.36259434 -0.021979323 -0.012239852 0.40842703 0.062462337 -0.41952688 0.34609795 0.2758193
-0.084694654 -0.009160178 -0.16332382 0.21795836 0.041793417 -0.022051767 -0.16201615 -0.07150674
-0.17582276 0.017602913 -0.104584634 0.091013886 -0.015026411 0.09384313 0.034517042 0.07619993
0.038816832 -0.014361602 -0.44323233 0.12848818 0.18601175 0.22324 0.19656788 0.07766695
0.071684875 0.089681104 -0.13073014 0.39621127 -0.27465233 -0.09069299 0.24463525 -0.20449714
-0.069333725 -0.06527199 -0.27145088 0.41596463 0.5122194 -0.15413506 0.24521837 -0.1195962
0.05570548 0.034287125 -0.10344568 -0.47597942 -0.15899873 -0.120553784 -0.08473521 0.03469436
0.01823293 -0.04681064 -0.026671145 0.19846763 -0.17964417 0.12588212 0.17975578 -0.065449774
0.06403953 -0.12077343 -0.060632113 -0.020241043 0.011791276 -0.03295172 0.050472587 -0.021508906
0.002662866 0.2198361 -0.073046 -0.23070556 -0.20680885 -0.09904961 -0.023487644 -0.5301564
0.16665348 -0.20797093 -0.091047324 -0.059078496 -0.082812905 0.21644646 0.007017484 0.10765098
0.021833433 -0.22514482 -0.17279479 -0.03185796 -0.31694537 -0.1285107 0.036567986 0.23945329
-0.04259778 -0.29362878 -0.16178246 0.11412111 -0.36142844 0.08210912 -0.29469818 -0.06793938
-0.16772315 0.5045267 -0.10136072 -0.09167907 -0.21419492 -0.29704496 -0.1026002 0.012490524
0.027094351 0.3587071 -0.19147272 0.43376383 0.14776172 -0.07742901 -0.066648714 0.017132916
0.071001716 0.08394435 0.04571333 0.261192 -0.023868475 0.13288802 0.61806375 -0.30262733
0.037747316 -0.24005742 0.18637267 -0.019156516 -0.0815608 0.04583278 0.22737476 -0.13571197
0.22330026 -0.08076813 -0.32949948 -0.2098283 -0.37258863 -0.089705534 -0.2476995 -0.043981053
0.40199888 0.26622108 -0.27184564 0.018306833 -0.09487923 0.058674745 -0.15072194 0.16773047
-0.26242098 0.41824004 -0.0769583 0.11073587 -0.18949848 0.088501625 -0.09283914 -0.13476844
0.05192275 0.5461733 0.25201878 0.001197384 -0.11421373 0.044637423 0.09960848 0.016807148
0.0066700834 -0.26496917 -0.013239873 -0.18669333 0.27660355 -0.280068 -0.085013345 -0.09308284
-0.13182832 0.19365537 0.107736215 0.18858467 0.06459421 0.33098134 0.033494323 -0.09122905
-0.046281323 -0.144783 0.0032479533 -0.05111014 -0.05539173 0.07386993 0.36485058 0.04792033

fc_out.bias f4 [10]
00000000: 9ca0 81be 051e 9d3e 6e34 7b3d 61d6 17be
00000010: e449 0e3e f27a b33d 468a 49bd 6ea6 9f3d
00000020: 2f86 7ebe b140 00bd
-0.25317848 0.30686966 0.061329298 -0.14827873 0.13895375 0.08763684 -0.049204133 0.07795416
-0.24855874 -0.031311695
