Neural_Networks_Adversarial_Attacks_Defense/saved_models/saved/fc_model_vs_FGM.pt (torch, 401711 bytes, 8 tensors)

fc1.weight f4 [100, 784]
-0.00838077 -0.0056021693 -0.010021085 -0.015711306 0.024304409 -0.008658961 -0.0041421903 -0.006428398
-0.0035007598 -0.008889488 -0.015597633 -0.032887764 -0.028406272 0.0029086191 0.025260875 0.025257805
0.013438157 -0.031057665 -0.025208963 -0.012813327 -0.0055041756 -0.043333635 -0.0032327508 -0.041522883
-0.0289476 -0.04909463 0.0015235872 -0.041545834 -0.0477908 -0.07398512 -0.06404014 -0.032620735
-0.06546457 -0.044571307 -0.041536573 -0.009572073 -0.011621991 0.00265676 -0.03539072 -0.007579967
0.020298785 -0.012971163 -0.014585682 -0.013657193 -0.0026041863 -0.045424085 -0.022545377 -0.023190225
-0.038042452 0.00500861 -0.053337995 0.025883907 -0.058280133 -0.011979299 -0.023431227 -0.068123884
-0.05848588 -0.07216189 -0.018862456 -0.06258182 -0.054002553 -0.026015611 -0.016735444 -0.05673875
0.019814843 -0.019440355 0.012719901 -0.017504595 0.0310264 0.015534401 -0.013027884 0.0010300706
0.0019252277 0.0078055346 0.010886866 -0.007887769 -4.0048242e-05 -0.05217099 -0.034435086 -0.036144678
-0.0049036033 -0.015195359 -0.010848139 -0.022205444 -0.04396649 -0.032937434 -0.035749674 -0.01587523
-0.030921713 -0.033071224 -0.024823554 0.0038137578 0.0048907246 0.000623636 0.028660825 0.027030509
0.002203719 0.0089792255 0.0297281 0.016578162 -0.027239399 0.02233804 0.0018705645 0.020232335
1.1441941e-06 -0.03887985 -0.014951836 -0.0128727 -0.009400712 -0.052189324 -0.017034922 -0.020740412
0.04492528 0.0061281724 0.050056074 0.035485808 0.041740265 0.018917454 -0.022213519 0.016142242
0.007066946 0.012892287 0.015974525 0.04103429 0.00082254544 0.039932154 -0.011014628 -0.04408438
-0.003111393 -0.028005214 0.0028420496 -0.027034694 0.023376139 -0.02826251 -0.046454363 -0.024662068
-0.045911208 0.00061816716 -0.03807858 -0.0019463464 0.052487567 0.037619565 0.029798726 -0.027473815
0.028106611 -0.015107475 -0.015640792 -0.011717664 0.0011875156 0.0033381653 0.008071587 0.005523329
-0.012236139 0.040019784 0.018448751 -0.023853747 -0.032840192 -0.04297527 -0.04687735 4.838029e-05
-0.015037027 0.030677998 -0.045499362 -0.033497564 -0.044239063 -0.02348263 0.030612867 -0.007583577
0.0018844574 -0.029128367 0.013685812 -0.018554805 0.009076853 0.017352182 0.015930722 -0.017448481
0.018086897 0.030196138 -0.0057258694 0.038500436 -0.0020070716 0.02496355 -0.00887313 -0.002434025
-0.02255197 -0.019231444 0.010816651 -0.004049758 0.0039578327 0.01012163 0.00035349434 -0.00059093616
-0.0014439027 -0.0021209223 0.008262632 0.017319473 -0.04394052 -0.02010493 -0.01562628 -0.0048432164
-0.0059535755 -0.041161772 0.026886059 0.003174344 0.024918238 -0.000686477 0.04043687 -0.024987966
0.0012949255 0.011402625 -0.012242695 -0.012726777 -2.095083e-05 -0.04782716 -0.042506646 -0.018207528
-0.022549137 -0.022827618 0.0048612957 0.0071819685 -0.02411155 -0.0013454369 0.030918036 -0.00034659886
-0.0025194392 -0.032609563 -0.052444834 -0.016467823 -0.025143782 -0.024176788 0.026419383 -0.004084482
-0.007154917 -0.01858447 -0.010037551 -0.01885018 -0.030829977 -0.024425836 -0.009855093 0.013347853
0.020067822 -0.014639701 -0.030813709 0.0010145988 0.030104296 0.062039565 0.0018304402 0.016386312
0.0019805531 0.020665836 -0.002242534 0.043882877 -0.03249722 0.035198465 0.022736913 -0.03145943
00000000: 7f4f 09bc 6792 b7bb 7a2f 24bc ffb4 80bc
00000010: 0a1a c73c 51de 0dbc 36bb 87bb 50a5 d2bb
00000020: 016d 65bb 37a5 11bc 378d 7fbc 52b5 06bd
00000030: 45b4 e8bc 889e 3e3b e5ef ce3c 75e9 ce3c
00000040: b72b 5c3c a56c febc 0783 cebc fdee 51bc
00000050: 5f5c b4bb 9c7e 31bd 8fdc 53bb e613 2abd
00000060: 8423 edbc 7317 49bd 1ab3 c73a f72b 2abd
00000070: 49c0 43bd 8385 97bd 7a27 83bd 529d 05bd
00000080: 4a12 86bd 6790 36bd 4122 2abd 2fd4 1cbc
00000090: 2a6a 3ebc 091d 2e3b dcf5 10bd 5f61 f8bb
000000a0: a349 a63c 0085 54bc c9f8 6ebc 6bc2 5fbc
000000b0: ffaa 2abb 9b0e 3abd 15b1 b8bc 6df9 bdbc
000000c0: 67d2 1bbd 441f a43b f178 5abd 7d0a d43c
000000d0: 26b7 6ebd d244 44bc d8f2 bfbc 8984 8bbd
000000e0: e48e 6fbd 9dc9 93bd 7085 9abc e62a 80bd
000000f0: c831 5dbd b11e d5bc c518 89bc e466 68bd
00000100: bd52 a23c 6141 9fbc 2267 503c cc65 8fbc
00000110: 142b fe3c 0084 7e3c e872 55bc 6f03 873a
00000120: ec57 fc3a 92c5 ff3b d35e 323c b33b 01bc
00000130: 79f9 27b8 3fb1 55bd ce0b 0dbd 710c 14bd
00000140: 68ae a0bb f4f5 78bc 65bc 31bc 31e8 b5bc
00000150: 3516 34bd 67e9 06bd 406e 12bd c50c 82bc
00000160: 884f fdbc b175 07bd c45a cbbc 3df0 793b
00000170: 5f42 a03b 817b 233a 1bca ea3c 166f dd3c
00000180: 456c 103b 9a1d 133c 5888 f33c edce 873c
00000190: 2925 dfbc 44fe b63c bb2d f53a 48be a53c
000001a0: 3692 9935 7a40 1fbd 8cf8 74bc 04e8 52bc
000001b0: 7205 1abc 79c4 55bd d28c 8bbc cce7 a9bc
000001c0: 9203 383d d6ce c83b 9907 4d3d 9159 113d
000001d0: d7f7 2a3d c7f8 9a3c 20f9 b5bc bc3c 843c
000001e0: d791 e73b 2c3a 533c 02dd 823c 9213 283d
000001f0: 17a0 573a e68f 233d b376 34bc d391 34bd
00000200: 83e8 4bbb 316b e5bc ae41 3a3b dd77 ddbc
00000210: 517f bf3c c886 e7bc ee46 3ebd 1b08 cabc
00000220: 640d 3cbd 7f0c 223a 49f8 1bbd 8c1c ffba
00000230: 34fd 563d f916 1a3d 751c f43c c410 e1bc
00000240: d63f e63c 5885 77bc 1e21 80bc 72fb 3fbc
00000250: 69a6 9b3a 1fc5 5a3b b13e 043c 0bfd b43b
00000260: 167a 48bc c9eb 233d d621 973c ef68 c3bc
00000270: 7083 06bd d606 30bd 7702 40bd f1eb 4a38
00000280: dd5d 76bc 6d50 fb3c 8a5d 3abd be34 09bd
00000290: 0534 35bd a55e c0bc d6c7 fa3c a87f f8bb
000002a0: e6ff f63a 9d9e eebc 753a 603c 3f00 98bc
000002b0: 15b7 143c 2a26 8e3c 2581 823c 1ef0 8ebc
000002c0: f92a 943c e45d f73c 13a0 bbbb a2b2 1d3d
000002d0: 1389 03bb 5c80 cc3c 9b60 11bc 2a84 1fbb
000002e0: e9be b8bc 438b 9dbc 5338 313c d5b3 84bb
000002f0: b5b0 813b 31d5 253c 3555 b939 0ee9 1aba
00000300: 5641 bdba 2cff 0abb fe5f 073c 91e1 8d3c
00000310: fafa 33bd 18b3 a4bc af02 80bc d8b3 9ebb
00000320: 3616 c3bb 3f99 28bd 2740 dc3c a808 503b
00000330: 5521 cc3c b1f4 33ba 22a1 253d 90b3 ccbc
00000340: 7dba a93a 13d2 3a3c 9695 48bc f983 50bc
00000350: 91bf afb7 6ae6 43bd 731b 2ebd f427 95bc
00000360: f8b8 b8bc fc00 bbbc 814b 9f3b b856 eb3b
00000370: 9685 c5bc 5f59 b0ba d247 fd3c b6b7 b5b9
00000380: 2d1d 25bb 9b91 05bd 65d0 56bd 87e7 86bc
00000390: 55fa cdbc 660e c6bc 766d d83c 1ed7 85bb
000003a0: cb73 eabb 753e 98bc 8a74 24bc b16b 9abc
000003b0: 268f fcbc b118 c8bc 4277 21bc f4b0 5a3c
000003c0: 4665 a43c 5bdb 6fbc 086d fcbc 49fc 843a
000003d0: 499d f63c 331d 7e3d 62eb ef3a 963c 863c
000003e0: 2bcc 013b 664b a93c 7af7 12bb 88be 333d
000003f0: ce1b 05bd 442c 103d c342 ba3c 9adb 00bd

fc1.bias f4 [100]
-0.009876859 0.022917593 0.031321127 0.07708852 0.04895305 -0.013845369 -0.04156805 -0.009771008
-0.01619644 0.040162772 0.07708191 0.02777313 0.05410971 0.013271201 0.029509585 -0.018039305
-0.014289331 -0.012122425 0.0071030753 0.07493464 0.056787048 0.028164886 0.018728796 0.11627144
0.033052366 -0.088637315 0.0324173 -0.05242741 0.082986504 0.031916674 -0.013635679 0.023569131
0.005278425 0.15456195 -0.005266376 0.011081659 0.06933013 -0.003918436 0.0337203 0.0018908689
0.08147912 -0.08157739 0.08402445 -0.008439641 0.0064956783 -0.0065412517 -0.07056205 -0.016762678
0.002747598 0.063513555 0.069028385 0.06958844 0.037708096 -0.020223683 0.045552276 0.05211047
-0.059727825 0.021500694 -0.021589171 0.10061713 0.0028458557 -0.020309284 -0.022443626 0.08697596
0.040842257 0.072528005 -0.023875507 0.03598167 -0.01586031 -0.029458178 -0.024712447 0.0058537656
-0.0058529433 -0.007933642 0.058724668 -0.025691953 -0.004554927 0.039962314 0.055382047 -0.03251394
0.023581037 -0.01410653 0.110902086 -0.004637245 0.029341945 0.06170678 -0.032793928 0.0018336741
0.010962777 0.029663539 0.009331519 0.02041939 0.035919026 0.054047223 0.0061356304 -0.026303511
-0.018738497 -0.062662914 -0.021587705 0.017218312
00000000: 8dd2 21bc adbd bb3c 954a 003d 96e0 9d3d
00000010: fe82 483d b0d7 62bc 4243 2abd 9416 20bc
00000020: 66ae 84bc b881 243d 1fdd 9d3d 7a84 e33c
00000030: 25a2 5d3d 746f 593c 16be f13c 2ac7 93bc
00000040: cc1d 6abc 239d 46bc eac0 e83b 5577 993d
00000050: 8999 683d 0cba e63c 226d 993c b91f ee3d
00000060: eb61 073d 7b87 b5bd 01c8 043d 20be 56bd
00000070: d4f4 a93d 0fbb 023d 2f68 5fbc 0d14 c13c
00000080: a3f6 ac3b 7d45 1e3e 9091 acbb d98f 353c
00000090: f5fc 8d3d 3966 80bb 4c1e 0a3d 08d7 f73a
000000a0: 86de a63d 0c12 a7bd 0315 ac3d 6c46 0abc
000000b0: b3d9 d43b ff57 d6bb d682 90bd e251 89bc
000000c0: 0c11 343b 6513 823d c15e 8d3d 6284 8e3d
000000d0: ce73 1a3d 23ac a5bc 0695 3a3d ca71 553d
000000e0: 2aa5 74bd 3922 b03c c6db b0bc 5b10 ce3d
000000f0: 8981 3a3b a85f a6bc b2db b7bc 7420 b23d
00000100: 364a 273d 9089 943d 9196 c3bc 8461 133d
00000110: 7bed 81bc 4752 f1bc c271 cabc f2d0 bf3b
00000120: 0cca bfbb 1bfc 01bc 4789 703d ee77 d2bc
00000130: 7f41 95bb 86af 233d 49d8 623d 562d 05bd
00000140: 052d c13c 131f 67bc a220 e33d 08f4 97bb
00000150: 855e f03c 40c0 7c3d ed52 06bd e557 f03a
00000160: 389d 333c f300 f33c 3ae3 183c 9146 a73c
00000170: d41f 133d 9f60 5d3d 660d c93b 767a d7bc
00000180: 7a81 99bc 6a55 80bd b3d8 b0bc 6b0d 8d3c

fc2.weight f4 [100, 100]
0.025004063 -0.086441115 0.20137057 0.061887026 0.103755504 -0.05379078 0.22219464 0.023565732
-0.017170822 0.18221937 0.03802676 0.13049516 0.044704676 -0.104931794 -0.107310124 -0.046809252
0.023473484 0.13698703 -0.14041589 -0.01945765 -0.17646553 -0.1364785 -0.034872115 -0.067142464
0.13253409 -0.062729605 -0.054381557 0.047263335 0.21306206 0.066173986 -0.033526048 0.14556141
-0.117802225 0.17332223 -0.12929513 -0.07528835 0.047826663 0.07357749 0.08963132 0.072656356
-0.04155464 -0.115631625 0.09527829 0.014844389 -0.09431472 0.024310544 -0.123926945 -0.055457126
0.027181167 0.111283496 -0.03700483 -0.06420908 0.018216895 0.07577432 -0.03919518 0.15527791
0.094405554 0.01049843 0.18599802 -0.045144238 -0.17149512 0.033134643 0.059559777 -0.0460942
0.031144641 0.052433938 -0.039491445 -0.07207397 0.0056516747 0.16922006 -0.07803717 -0.00040807071
-0.041665323 0.007848058 0.04816441 -0.076185204 -0.064671494 0.12726662 -0.0769926 -0.05497007
0.12462538 -0.037691344 0.17277011 0.043191068 0.14890115 -0.048124537 -0.087607585 -0.044232033
-0.0007309419 -0.12222876 -0.103241555 0.06621712 -0.043400057 0.03342986 -0.0794896 -0.051379994
0.07540872 0.13631737 0.08100409 0.24620853 0.0026035933 0.031695783 -0.046619195 -0.04334602
0.14320646 0.086120434 -0.07138967 -0.0504395 0.09907168 0.01748435 0.007296474 0.019751059
-0.033983495 -0.055282794 0.13649982 0.08437872 0.07192124 0.00568173 -0.016482051 0.037152514
0.1496628 -0.0060468963 -0.023406528 -0.029289518 0.086164095 0.0409305 -0.11451067 0.034741577
-0.06352799 -0.0675171 -0.119339466 -0.066614114 0.046322238 -0.010055226 0.1052905 0.084601045
0.07380958 0.07741548 0.07088605 0.048788033 -0.052442513 -0.041553956 0.017853616 0.034055986
-0.032945093 0.07097538 -0.15111682 -0.03219724 -0.08818312 -0.0095040975 0.02057554 -0.0046251197
0.040603798 -0.0699782 0.010964526 -0.05986735 -0.01130338 0.12819643 0.078692876 0.009185258
0.07905507 -0.1299793 -0.0060408413 0.04142614 0.07742538 -0.022573637 -0.053535946 0.0018292298
-0.05689378 0.023441587 0.07615512 -0.065237224 -0.058944035 0.06333193 0.07094089 0.06265313
-0.00027918673 0.0112782 -0.06366166 -0.03315486 0.001719312 -0.02999892 -0.069842175 0.027796812
-0.085883975 0.035756648 -0.019677645 -0.032246843 -0.048229616 -0.005272576 0.026740726 -0.06652768
-0.12796918 0.10765249 0.008976271 0.10480138 -0.07326967 0.023362277 0.016349837 0.07569011
-0.0037699891 -0.07738641 0.17603889 0.059428085 0.03639593 -0.0867658 0.11772461 0.08026037
0.09008883 -0.01873356 0.054884866 0.13123338 0.058542755 -0.1418897 -0.020997113 0.02943109
-0.08661902 0.074719235 -0.011559432 -0.04751826 -0.061025757 0.10098145 0.08277726 0.024752766
-0.06726359 0.01869454 0.08609268 0.056099404 0.14791198 0.09010925 0.07063303 0.17422098
-0.09392825 0.06203577 -0.08141106 -0.1685151 0.05871373 -0.020896832 0.016566064 0.049199387
0.046101864 -0.11665912 -0.060881205 0.041588433 0.078989215 0.0022018626 0.07287715 0.1352325
0.034192525 0.1345729 0.09463603 -0.08138213 -0.061855678 -0.01983518 -0.12746899 -0.023166604
00000000: 52d5 cc3c 0a08 b1bd 1634 4e3e 407d 7d3d
00000010: c47d d43d b953 5cbd fe86 633e ec0c c13c
00000020: d3a9 8cbc b797 3a3e f3c1 1b3d 86a0 053e
00000030: 401c 373d 7be6 d6bd 69c5 dbbd 0fbb 3fbd
00000040: 774b c03c 5446 0c3e 2fc9 0fbe a665 9fbc
00000050: 61b3 34be 05c1 0bbe 10d6 0ebd fd81 89bd
00000060: 04b7 073e 6178 80bd 32bf 5ebd 3397 413d
00000070: f12c 5a3e 3a86 873d 9c52 09bd 0d0e 153e
00000080: 4b42 f1bd 627b 313e f165 04be c730 9abd
00000090: e4e5 433d ccaf 963d a090 b73d dbcc 943d
000000a0: 3335 2abd 46d0 ecbd 4421 c33d e135 733c
000000b0: 1328 c1bd e826 c73c 69cd fdbd 0327 63bd
000000c0: 0aab de3c 9ae8 e33d 6092 17bd 0d80 83bd
000000d0: 993b 953c 912f 9b3d 208b 20bd 2c01 1f3e
000000e0: b357 c13d 9b01 2c3c 4476 3e3e 2ae9 38bd
000000f0: 6b9c 2fbe 31b8 073d f4f4 733d 46cd 3cbd
00000100: 0c23 ff3c f8c4 563d c8c1 21bd 859b 93bd
00000110: af31 b93b 0648 2d3e f4d1 9fbd 53f2 d5b9
00000120: 42a9 2abd 2495 003c 0b48 453d fd06 9cbd
00000130: 7d72 84bd 2e52 023e 4cae 9dbd 4c28 61bd
00000140: 973b ff3d 3d62 1abd a6ea 303e 1ee9 303d
00000150: 8b79 183e 3c1e 45bd 9b6b b3bd a62c 35bd
00000160: ae9c 3fba 1253 fabd 4f70 d3bd d79c 873d
00000170: 42c4 31bd c0ed 083d 72cb a2bd d473 52bd
00000180: e36f 9a3d c896 0b3e 79e5 a53d 171e 7c3e
00000190: 0ca1 2a3b 70d3 013d c5f3 3ebd 998b 31bd
000001a0: b7a4 123e e95f b03d bf34 92bd a699 4ebd
000001b0: 18e6 ca3d 573b 8f3c 4317 ef3b f9cc a13c
000001c0: 4732 0bbd 3670 62bd 9cc6 0b3e c0ce ac3d
000001d0: 714b 933d ce2d ba3b 5e05 87bc 3c2d 183d
000001e0: 3441 193e 0b25 c6bb 0cbf bfbc 92f0 efbc
000001f0: cd76 b03d bda6 273d 9284 eabd 2f4d 0e3d
00000200: f61a 82bd 6846 8abd 4068 f4bd fb6c 88bd
00000210: 63bc 3d3d adbe 24bc 8ca2 d73d 5043 ad3d
00000220: 7a29 973d 028c 9e3d b52c 913d f6d5 473d
00000230: f6cd 56bd 7b34 2abd bf41 923c 4a7e 0b3d
00000240: 6ff1 06bd 8a5b 913d 5ebe 1abe 41e1 03bd
00000250: 5a99 b4bd 13b7 1bbc 098e a83c 518e 97bb
00000260: 2b50 263d bb50 8fbd 8ea4 333c 7737 75bd
00000270: d031 39bc ed45 033e bb29 a13d c47d 163c
00000280: a0e7 a13d 4b19 05be 40f2 c5bb 75ae 293d
00000290: 3391 9e3d 59ec b8bc 8248 5bbd c4c2 ef3a
000002a0: 7409 69bd 9208 c03c 37f7 9b3d 189b 85bd
000002b0: 4d6f 71bd 2cb4 813d 7549 913d 4950 803d
000002c0: cf5f 92b9 33c8 383c 0b61 82bd 64cd 07bd
000002d0: 8a5a e13a 4cc0 f5bc 6a09 8fbd 24b6 e33c
000002e0: f0e3 afbd 9075 123d 0333 a1bc 4415 04bd
000002f0: 6b8c 45bd 93c5 acbb 5e0f db3c aa3f 88bd
00000300: 5a0a 03be e978 dc3d 3611 133c 1ba2 d63d
00000310: 690e 96bd 3f62 bf3c 18f0 853c 6b03 9b3d
00000320: ec11 77bb c47c 9ebd 8a43 343e dd6a 733d
00000330: e613 153d 45b2 b1bd 9a19 f13d 8d5f a43d
00000340: 7e80 b83d 1f77 99bc f4ce 603d 0b62 063e
00000350: 87ca 6f3d 894b 11be 2302 acbc 7819 f13c
00000360: 5065 b1bd 6606 993d c663 3dbc 82a2 42bd
00000370: 25f6 79bd 5dcf ce3d 2087 a93d 50c6 ca3c
00000380: 7ec1 89bd 4b25 993c 5c51 b03d 7dc8 653d
00000390: 3d76 173e 338b b83d 0da8 903d fc66 323e
000003a0: 745d c0bd 3819 7e3d d8ba a6bd 398f 2cbe
000003b0: cf7d 703d d52f abbc 8eb5 873c 4c85 493d
000003c0: 4fd5 3c3d faea eebd 925e 79bd a258 2a3d
000003d0: 19c5 a13d 204d 103b 9d40 953d 637a 0a3e
000003e0: 760d 0c3d 7acd 093e 89d0 c13d adab a6bd
000003f0: 615c 7dbd 637d a2bc 3b87 02be e4c7 bdbc

fc2.bias f4 [100]
0.045687735 0.03860017 -0.017090883 0.11199579 -0.057183947 -0.052574646 0.025566088 0.016009409
0.1570449 -0.09011547 -0.0020835272 0.09042422 0.047291916 0.11722555 -0.03608855 -0.010437481
-0.008642369 0.04675484 0.025146652 0.15624349 -0.090640485 0.0998837 0.03008906 0.081040554
-0.04637634 0.0061679105 -0.059502337 0.045569655 0.015308202 0.08980359 0.025684368 -0.09545276
0.013487858 0.20041141 0.00798874 -0.031268418 0.046797015 0.1546753 0.0020017403 0.04772135
0.053644996 -0.05049569 0.14157504 0.14944516 -0.030037804 -0.014872391 0.13719705 0.009620627
-0.036088556 0.09789727 0.037270445 -0.013483554 -0.014920026 -0.038973823 -0.0036576435 0.07155473
0.16511336 0.084252976 0.056872867 -0.024706118 -0.077222675 -0.108589344 0.049373094 -0.018347181
0.035282355 -0.027051521 -0.062314663 0.06076335 0.07584958 0.17709032 -0.027235303 0.09297465
0.10324629 0.09395195 0.05248036 -0.047149844 0.020662108 -0.030117054 0.15331672 0.09049577
0.21945989 -0.0028439795 -0.05414919 0.085949525 0.1315048 0.055924136 0.11692372 0.05282289
0.03392427 0.014413042 0.028608352 0.047664516 -0.085714385 -0.0805704 0.05032413 -0.044971146
0.18519838 0.105392456 -0.091201685 0.16785762
00000000: 1023 3b3d 361b 1e3d 2e02 8cbc 0c5e e53d
00000010: b739 6abd 8358 57bd f96f d13c 2a26 833c
00000020: 61d0 203e 768e b8bd c98b 08bb 5530 b93d
00000030: 2bb5 413d f313 f03d 96d1 13bd f801 2bbc
00000040: b998 0dbc 0182 3f3d 5a00 ce3c 4bfe 1f3e
00000050: b8a1 b9bd d38f cc3d 557d f63c 97f8 a53d
00000060: 1ef5 3dbd 2f1c ca3b b9b8 73bd 3fa7 3a3d
00000070: 41cf 7a3c f2ea b73d 0668 d23c bd7c c3bd
00000080: 2dfc 5c3c a638 4d3e 34e3 023c 5013 00bd
00000090: 3aae 3f3d 3463 1e3e a12f 033b 7677 433d
000000a0: dbba 5b3d 92d4 4ebd 0cf9 103e 2708 193e
000000b0: d711 f6bc 54ab 73bc 627d 0c3e d69f 1d3c
000000c0: 98d1 13bd 5d7e c83d e5a8 183d 20ea 5cbc
000000d0: 2073 74bc 04a3 1fbd 13b5 6fbb 498b 923d
000000e0: 7a13 293e d38c ac3d 86f3 683d 7c64 cabc
000000f0: ec26 9ebd 1764 debd 713b 4a3d d44c 96bc
00000100: 3b84 103d 279b ddbc a93d 7fbd fee2 783d
00000110: 0657 9b3d 2a57 353e 921c dfbc 7e69 be3d
00000120: ca72 d33d e169 c03d a5f5 563d 3220 41bd
00000130: 9543 a93c 0ab8 f6bc 0fff 1c3e d955 b93d
00000140: 18ba 603e 0f62 3abb 8bcb 5dbd 4e06 b03d
00000150: 32a9 063e b510 653d b475 ef3d d15c 583d
00000160: 2df4 0a3d ae24 6c3c 105c ea3c de3b 433d
00000170: 068b afbd 1802 a5bd ad20 4e3d aa33 38bd
00000180: a5a4 3d3e 00d8 d73d f3c7 babd dee2 2b3e

fc3.weight f4 [100, 100]
-0.026374128 0.08975137 -0.055012777 0.06466436 0.033298835 -0.060082104 -0.20042367 -0.018525694
0.085477464 0.010708475 -0.18813573 0.048782844 -0.14296387 -0.078928605 -0.017072998 0.120350555
-0.092284404 0.020568004 -0.12847807 -0.031500153 0.073794276 0.089992166 0.16530551 0.096401826
0.067218766 -0.0900181 0.03518652 -0.106157206 -0.069640696 -0.04823772 -0.014576039 -0.06615512
-0.053868353 -0.11781677 0.043404285 0.0575812 0.066139825 0.12873293 0.11825419 -0.016250648
0.004168073 0.03827392 -0.00022752427 -0.049746253 -0.12214638 -0.090236805 0.05001522 0.06625296
0.07162456 0.055771537 0.16378121 0.17851456 0.113543935 -0.062042132 -0.012535863 -0.12732798
0.01721261 0.009161635 -0.047620993 0.048159856 -0.077568464 -0.010394265 0.11484108 0.059990127
0.2165719 -0.050438195 0.079960704 0.085943505 0.22519654 0.09013947 0.031948525 0.049619865
0.16807914 0.06475917 -0.056966003 0.038738497 0.1396409 0.10526515 -0.018677497 -0.020074448
-0.00032364394 0.0021003499 0.066497035 0.080084324 -0.11200904 -0.074111156 0.042146713 -0.027886247
0.074367136 0.07290967 0.097007565 -0.037388768 0.06617406 0.022746596 0.024625229 0.06453173
-0.10252425 -0.08849025 0.07349051 0.0013350223 -0.06625227 0.08325934 0.0034688974 0.037426945
-0.015763007 -0.011803574 0.040321343 -0.054611824 -0.093536496 -0.050599206 -0.0799834 0.078299545
0.051065665 0.081767745 -0.08832435 0.044464283 -0.090418525 0.07164601 -0.060005188 0.08470969
-0.030041983 0.077654965 -0.026610885 -0.084498964 -0.023990018 0.072398715 -0.040027637 -0.06310035
-0.029236859 0.047630597 0.033630267 0.06899345 -0.029851811 -0.059121832 -0.026262019 -0.07660435
-0.03794563 -0.007103279 0.08127979 -0.06264868 0.058143962 0.06141424 -0.037947156 0.035212714
-0.0049763164 -0.012205679 0.07752893 -0.07530954 0.07036653 -0.092757076 0.06312252 -0.085216224
-0.05003587 -0.067918405 -0.08358692 0.018382786 -0.04467697 0.07217927 0.080905184 -0.08114816
-0.00611556 0.08594438 0.006654233 -0.03236921 0.048764687 -0.060829792 0.065745175 0.052361317
-0.0935229 -0.009291814 0.014545685 0.049302768 -0.031066585 -0.05641793 -0.07950141 0.0076604974
0.05204951 -0.029554792 0.014920545 -0.0626343 -0.061616313 0.032834645 -0.018720418 -0.0886758
-0.09338158 -0.044820882 0.071279734 -0.072541036 0.04955842 0.04925857 -0.012575049 0.0768292
0.059216686 0.04428967 -0.027460935 0.007985628 -0.08185461 0.053416554 -0.00091295806 0.018634949
-0.041126113 0.027180582 -0.02269052 -0.10303082 -0.10962879 -0.05404961 0.057578124 -0.040903762
0.0039853337 -0.018951071 -0.21407862 -0.08775226 -0.058870226 0.0820938 0.025505377 -0.06669315
-0.1094054 -0.06285036 0.051997457 0.032996234 0.088756815 -0.022177007 0.004987903 -0.12661177
-0.17957395 -0.059359968 -0.036844008 -0.1607095 0.115854196 0.12396688 0.070705384 0.1268077
0.024604362 0.08558234 -0.11314842 0.031722415 -0.17564756 0.22496617 0.15387286 0.09279991
-0.08091787 0.14473352 -0.03891989 0.020170277 0.061109647 -0.09987071 0.14343627 -0.09473272
-0.09186024 0.163342 0.13909994 0.11280212 -0.010519973 -0.006448779 0.06878518 -0.019918043
00000000: 8e0e d8bc 91cf b73d 1455 61bd bf6e 843d
00000010: 5c64 083d a718 76bd dd3b 4dbe 32c3 97bc
00000020: cf0e af3d 9972 2f3c a7a6 40be 85d0 473d
00000030: 1f65 12be 52a5 a1bd acdc 8bbc 5a7a f63d
00000040: 9bff bcbd 3b7e a83c c18f 03be 4e06 01bd
00000050: 7421 973d d04d b83d d945 293e 526e c53d
00000060: fea9 893d 695b b8bd be1f 103d f368 d9bd
00000070: c89f 8ebd ea94 45bd 57d0 6ebc 567c 87bd
00000080: 10a5 5cbd eb49 f1bd b1c8 313d 44da 6b3d
00000090: 5174 873d 91d2 033e 412f f23d 1420 85bc
000000a0: 5594 883b 1dc5 1c3d 9593 6eb9 bac2 4bbd
000000b0: e227 fabd 13ce b8bd c2dc 4c3d a2af 873d
000000c0: e6af 923d b270 643d 43b6 273e 85cc 363e
000000d0: b989 e83d e41f 7ebd 3863 4dbc 4462 02be
000000e0: 7601 8d3c af1a 163c 3b0e 43bd 4543 453d
000000f0: 37dc 9ebd b54c 2abc cd31 eb3d 35b8 753d
00000100: 06c5 5d3e 4898 4ebd 70c2 a33d 2603 b03d
00000110: ec99 663e 0b9b b83d 75dc 023d 333e 4b3d
00000120: f01c 2c3e 75a0 843d 2f55 69bd 42ac 1e3d
00000130: 06fe 0e3e 4195 d73d 8d01 99bc 2b73 a4bc
00000140: c1ae a9b9 06a6 093b 992f 883d 4003 a43d
00000150: ff64 e5bd 97c7 97bd 08a2 2c3d b371 e4bc
00000160: cc4d 983d aa51 953d e7ab c63d f724 19bd
00000170: 4486 873d 1257 ba3c d9ba c93c 3629 843d
00000180: 3cf8 d1bd 603a b5bd 3182 963d eafb ae3a
00000190: 45af 87bd df83 aa3d 7156 633b ff4c 193d
000001a0: 6c21 81bc c763 41bc fe27 253d a6b0 5fbd
000001b0: 1090 bfbd 1d41 4fbd 56ce a3bd 835b a03d
000001c0: 3b2a 513d d975 a73d 66e3 b4bd 2e20 363d
000001d0: 592d b9bd 25bb 923d 00c8 75bd 467c ad3d
000001e0: 9b1a f6bc 9109 9f3d 12ff d9bc cb0d adbd
000001f0: b786 c4bc c745 943d 05f4 23bd c23a 81bd
00000200: 2382 efbc 4d18 433d e4bf 093d 704c 8d3d
00000210: c98b f4bc bc29 72bd 7223 d7bc bee2 9cbd
00000220: e06c 1bbd 9fc2 e8bb 0576 a63d f34d 80bd
00000230: 5d28 6e3d 808d 7b3d 7a6e 1bbd 353b 103d
00000240: 5e10 a3bb 54fa 47bc 7dc7 9e3d e33b 9abd
00000250: 541c 903d 6cf7 bdbd 6146 813d d885 aebd
00000260: 6af2 4cbd ce18 8bbd 9e2f abbd 7f97 963c
00000270: 33ff 36bd bad2 933d 9eb1 a53d 0231 a6bd
00000280: 0965 c8bb 9b03 b03d c10b da3b 9495 04bd
00000290: 7bbd 473d a928 79bd 68a5 863d d278 563d
000002a0: ef88 bfbd b13c 18bc 0651 6e3c b3f1 493d
000002b0: 5a7f febc 7d16 67bd a3d1 a2bd e904 fb3b
000002c0: de31 553d e41c f2bc 4d75 743c 6946 80bd
000002d0: 6361 7cbd 9f7d 063d 905b 99bc a89b b5bd
000002e0: d83e bfbd 1a96 37bd 1cfb 913d 6590 94bd
000002f0: c5fd 4a3d 5bc3 493d 9407 4ebc a158 9d3d
00000300: 328d 723d 1669 353d c1f5 e0bc 27d6 023c
00000310: 64a3 a7bd 51cb 5a3d 9453 6fba 52a8 983c
00000320: db73 28bd d0a9 de3c 78e1 b9bc d301 d3bd
00000330: 0f85 e0bd 2063 5dbd 0ad7 6b3d b48a 27bd
00000340: 6797 823b 473f 9bbc 6d37 5bbe 75b7 b3bd
00000350: e821 71bd cb20 a83d a7f0 d03c 6b96 88bd
00000360: f00f e0bd b1b7 80bd 49fb 543d 0f27 073d
00000370: 22c6 b53d 8eac b5bc 9071 a33b 84a6 01be
00000380: 3ce2 37be 7023 73bd bee9 16bd 0891 24be
00000390: f744 ed3d 59e2 fd3d fccd 903d e1d9 013e
000003a0: 168f c93c cb45 af3d 5cba e7bd 5def 013d
000003b0: f4dc 33be 885d 663e d990 1d3e e10d be3d
000003c0: 45b8 a5bd 0635 143e 766a 1fbd 233c a53c
000003d0: 1c4e 7a3d 0489 ccbd f5e0 123e 3a03 c2bd
000003e0: 3921 bcbd 2043 273e 3770 0e3e cc04 e73d
000003f0: f75b 2cbc 4750 d3bb 3fdf 8c3d 2a2b a3bc

fc3.bias f4 [100]
0.08841553 -0.09038794 0.16237518 0.062424637 0.040913433 -0.033195965 -0.09436683 0.10704759
0.3095664 -0.0009356263 0.15088004 -0.05297254 -0.068911105 -0.08700563 0.12371643 -0.02706841
0.17893644 -0.016992293 0.019949976 -0.0015300993 -0.04392527 -0.052449748 0.08542782 0.069902435
0.032017484 0.1293015 -0.060422827 0.019557161 0.004949536 0.19324502 -0.025694825 -0.0822804
0.08855302 0.095014326 -0.07519954 0.026566105 -0.010182586 0.062275447 -0.010207478 -0.014038203
0.05998634 -0.07965621 0.06653808 0.015545063 0.09110071 -0.0683336 -0.024034118 -0.07039128
-0.08191176 0.07750545 0.038492873 -0.024083126 -0.017899618 -0.08089085 0.057776943 -0.07120941
0.038807858 -0.050015975 -0.06495584 0.05586834 0.052148677 0.12658064 -0.060622502 0.11076448
-0.017258305 -0.048161466 0.08998294 0.09880267 0.045053173 0.2685252 0.09745081 0.12808079
0.13121787 0.14845891 -0.009637208 -0.014769138 -0.048462484 0.091702625 0.08209687 0.13300128
0.20164071 -0.0029351707 0.015797943 -0.07915629 -0.091004044 0.14091021 0.022201555 0.10980187
0.013337374 0.034310658 0.13612577 -0.07108422 -0.0417346 0.02398543 0.11909712 -0.05057516
0.024791712 -0.047866475 -0.016891366 0.08948125
00000000: 3413 b53d 501d b9bd ae45 263e fab0 7f3d
00000010: d894 273d 7ef8 07bd 6643 c1bd c43b db3d
00000020: 7d7f 9e3e d144 75ba 4c80 1a3e bcf9 58bd
00000030: 4421 8dbd 0230 b2bd 0a5f fd3d 92be ddbc
00000040: 1d3b 373e 6c33 8bbc 226e a33c 9d8d c8ba
00000050: fcea 33bd 8cd5 56bd c8f4 ae3d 0229 8f3d
00000060: c424 033d 9d67 043e ed7d 77bd 5736 a03c
00000070: b82f a23b 06e2 453e f47d d2bc a082 a8bd
00000080: 495b b53d df96 c23d 3702 9abd 29a1 d93c
00000090: dcd4 26bc 8a14 7f3d 443d 27bc 7e00 66bc
000000a0: 3db4 753d cc22 a3bd 1e45 883d b8b0 7e3c
000000b0: 0293 ba3d 7df2 8bbd 33e3 c4bc 4e29 90bd
000000c0: 5ac1 a7bd 2dbb 9e3d b4aa 1d3d fa49 c5bc
000000d0: 38a2 92bc 1aaa a5bd 84a7 6c3d 3dd6 91bd
000000e0: fdf4 1e3d 8ddd 4cbd 9107 85bd 33d6 643d
000000f0: da99 553d 5b9e 013e 4d4f 78bd 7dd8 e23d
00000100: 4a61 8dbc f544 45bd fa48 b83d 0e59 ca3d
00000110: ad89 383d 237c 893e 4a94 c73d 9c27 033e
00000120: fa5d 063e 9d05 183e 61e5 1dbc 41fa 71bc
00000130: 9980 46bd 96ce bb3d 6722 a83d 7d31 083e
00000140: e77a 4e3e fe5b 40bb b06a 813c b11c a2bd
00000150: 5460 babd c44a 103e 09e0 b53c cedf e03d
00000160: 0085 5a3c 5589 0c3d 8e64 0b3e 9b94 91bd
00000170: e6f1 2abd 187d c43c 31e9 f33d e627 4fbd
00000180: fd17 cb3c a30f 44bd c35f 8abc f241 b73d

fc_out.weight f4 [10, 100]
0.18544026 0.033197023 -0.025425991 -0.3299733 0.057308786 0.07810533 0.18394034 -0.2916344
-0.5720041 0.122688845 -0.1354738 0.15845565 0.25276187 0.030096198 0.2784742 0.37636703
-0.09264444 -0.15744202 -0.07088456 -0.0020112381 -0.17213427 -0.14126267 -0.014106983 -0.035867084
-0.105783574 -0.14144711 -0.17435095 -0.044541445 -0.124125 0.06198847 -0.030744938 0.037351288
0.106649004 -0.105685726 -0.06690528 0.029432293 0.37083778 -0.37654984 0.062193096 0.065541126
0.2106187 -0.13908033 0.03059489 0.44682887 -0.047315344 0.05770527 -0.028616145 -0.056621
0.05467869 -0.35008356 -0.025662675 0.088639535 -0.037958812 0.0329199 -0.24061817 0.048289634
0.14309728 0.1993486 0.07747318 -0.30053407 0.03335886 -0.15685298 0.14360887 0.114715986
0.37054977 -0.021979323 -0.009033409 0.43545827 0.10002954 -0.41056877 0.28591317 0.217611
-0.09233923 0.016309524 -0.1634521 0.2023018 0.04179466 -0.0036942905 -0.16480336 -0.067607544
-0.1774855 0.017602142 -0.11395041 0.08881335 -0.021758066 0.1655339 0.046117466 0.07743069
0.047207918 -0.017322607 -0.45725375 0.14655952 0.19513279 0.25527298 0.16144118 0.09626884
0.07174278 0.090155095 -0.124156296 0.3982986 -0.27047396 -0.090693265 0.2502395 -0.16401069
-0.069370754 -0.064083576 -0.3001386 0.39765334 0.54195964 -0.14500177 0.26447034 -0.14853396
0.080498844 0.046632916 -0.091203555 -0.48103717 -0.12542135 -0.10576731 -0.07932517 0.03632678
0.020056069 -0.018040916 -0.027046189 0.18307544 -0.17310807 0.14151257 0.18987404 -0.06566429
0.059928287 -0.104369596 -0.06342063 -0.022359906 0.009777171 -0.04546924 0.05046074 -0.00031248198
-0.008884307 0.23595844 -0.06366511 -0.2369257 -0.15473978 -0.115578845 -0.009100774 -0.53940374
0.08046934 -0.23081559 -0.09116213 -0.059095755 -0.08226045 0.19742322 0.007872022 0.12197961
0.021833817 -0.22327203 -0.14754495 -0.03205642 -0.3330845 -0.1274707 0.05226372 0.2339353
-0.06393962 -0.25134012 -0.14890327 0.114128344 -0.3505586 0.08210912 -0.2661024 -0.009870015
-0.14849083 0.52764565 -0.068866424 -0.049284652 -0.17087772 -0.25850916 -0.109791115 0.038454372
0.02709552 0.3733893 -0.15492009 0.44200012 0.14790057 -0.077429675 -0.074154824 0.020839324
0.07123576 0.0686501 0.068770766 0.23518504 -0.024129655 0.11741964 0.66996515 -0.33077544
0.0473249 -0.19427057 0.1853461 -0.014620929 -0.081695974 0.01765684 0.21076673 -0.11749825
0.22276828 -0.08076794 -0.35746667 -0.24043442 -0.38344187 -0.09236034 -0.24186046 -0.05182454
0.42486864 0.26456824 -0.27488062 0.023001112 -0.10849064 0.054835334 -0.15067475 0.15804417
-0.29037705 0.4316487 -0.07752636 0.10369156 -0.17756887 0.06198325 -0.093540244 -0.10612264
0.066049784 0.5582326 0.2586272 0.0012492023 -0.11454164 0.014726082 0.10141874 0.01562996
0.013869081 -0.27399158 -0.013240596 -0.18690066 0.26412076 -0.29195184 -0.08706164 -0.1262043
-0.19047351 0.20631537 0.08786481 0.19562882 0.021609982 0.35491502 0.033413764 -0.091275364
-0.046998724 -0.14523056 0.0031488617 -0.05721079 -0.055391368 0.08510083 0.38857734 0.04718133
00000000: 0de4 3d3e 9af9 073d 2b4a d0bc 43f2 a8be
00000010: 9ebc 6a3d b0f5 9f3d db5a 3c3e 1b51 95be
00000020: dc6e 12bf 4a44 fb3d a5b9 0abe 3342 223e
00000030: 016a 813e 4d8c f63c 2c94 8e3e 2eb3 c03e
00000040: 5ebc bdbd 7b38 21be ed2b 91bd face 03bb
00000050: f743 30be 29a7 10be fa20 67bc 5de9 12bd
00000060: 0fa5 d8bd 83d7 10be 0e89 32be 1771 36bd
00000070: 3f35 febd 9fe7 7d3d cfdc fbbc aafd 183d
00000080: cb6a da3d c271 d8bd a305 89bd fe1b f13c
00000090: 73de bd3e 24cb c0be 30be 7e3d 6d3a 863d
000000a0: 6eac 573e 136b 0ebe 22a2 fa3c c1c6 e43e
000000b0: bccd 41bd 5c5c 6c3d 686c eabc 6ceb 67bd
000000c0: c3f6 5f3d 273e b3be 883a d2bc a588 b53d
000000d0: b37a 1bbd 04d7 063d 9c64 76be 5acb 453d
000000e0: 1888 123e 0a22 4c3e 42aa 9e3d 9adf 99be
000000f0: 4da3 083d 119e 20be 340e 133e 37f0 ea3d
00000100: b3b8 bd3e fb0d b4bc dd00 14bc 63f4 de3e
00000110: 4adc cc3d 1236 d2be 3663 923e 6bd5 5e3e
00000120: 5a1c bdbd 8d9b 853c fd5f 27be 3428 4f3e
00000130: e130 2b3d e91b 72bb 36c2 28be d375 8abd
00000140: c2be 35be 5e32 903c d55e e9bd c6e3 b53d
00000150: f93d b2bc b881 293e abe5 3c3d fb93 9e3d
00000160: 175d 413d 24e8 8dbc 2a1d eabe b313 163e
00000170: e4d0 473e 24b3 823e d650 253e 9928 c53d
00000180: e1ed 923d 3ca3 b83d a845 febd cbed cb3e
00000190: 907b 8abe 64bd b9bd 641f 803e 6bf2 27be
000001a0: 4112 8ebd 403e 83bd c4ab 99be 3899 cb3e
000001b0: debd 0a3f 587b 14be a868 873e 4919 18be
000001c0: 94dc a43d 2802 3f3d eec8 babd 814a f6be
000001d0: 746e 00be 889c d8bd 3c75 a2bd 64cb 143d
000001e0: a04c a43c 8bca 93bc f88f ddbc 2178 3b3e
000001f0: 3e43 31be ace8 103e 576e 423e 007b 86bd
00000200: 5d77 753d babf d5bd ade2 81bd 1f2c b7bc
00000210: 6d30 203c f43d 3abd ecaf 4e3d 9fd4 a3b9
00000220: 7c8f 11bc 179f 713e da62 82bd a79c 72be
00000230: 1b74 1ebe 9ab4 ecbd 6a1b 15bc 5d16 0abf
00000240: 1ccd a43d ec5a 6cbe 36b3 babd 640e 72bd
00000250: 2b78 a8bd 5029 4a3e a7f9 003c 72d0 f93d
00000260: d5dc b23c 6ca1 64be 0616 17be 984d 03bd
00000270: 0d8a aabe ae87 02be 7c12 563d bc8c 6f3e
00000280: c7f2 82bd a7af 80be 197a 18be 1fbc e93d
00000290: 6b7c b3be d428 a83d 933e 88be d8b5 21bc
000002a0: fb0d 18be c913 073f d709 8dbd b4de 49bd
000002b0: 92fa 2ebe 505b 84be 2ada e0bd 5582 1d3d
000002c0: 6df7 dd3c e22c bf3e 5fa3 1ebe d74d e23e
000002d0: 3f73 173e 7393 9ebd 7cde 97bd 3bb7 aa3c
000002e0: 0ee4 913d 6c98 8c3d b0d7 8c3d 59d4 703e
000002f0: 8eab c5bc b579 f03d d682 2b3f 665b a9be
00000300: c1d7 413d ddee 46be 5ecb 3d3e 9f8c 6fbc
00000310: 3850 a7bd 14a5 903c 3cd3 573e eca2 f0bd
00000320: 5e1d 643e a969 a5bd df05 b7be 7134 76be
00000330: 7e52 c4be 6b27 bdbd 45aa 77be f845 54bd
00000340: 6288 d93e 7d75 873e 27bd 8cbe d46c bc3c
00000350: 5730 debd 049b 603d 7b4a 1abe 55d6 213e
00000360: 4dac 94be 0f01 dd3e 24c6 9ebd 3e5c d43d
00000370: 9dd4 35be 26e2 7d3d 0792 bfbd d456 d9bd
00000380: 1c45 873d 55e8 0e3f c96a 843e 46bc a33a
00000390: cf94 eabd aa45 713c a1b4 cf3d 670a 803c
000003a0: 243b 633c a048 8cbe 16ef 58bc e362 3fbe
000003b0: d63a 873e b67a 95be 604d b2bd b33b 01be
000003c0: 7d0b 43be 5644 533e 77f2 b33d ec52 483e
000003d0: 6b07 b13c 6cb7 b53e dfdc 083d 94ee babd
000003e0: bc81 40bd 52b7 14be 225d 4e3b dd55 6abd
000003f0: 0fe2 62bd 5849 ae3d 9cf3 c63e 3641 413d

fc_out.bias f4 [10]
-0.2397025 0.3229143 0.029956253 -0.14851516 0.15790863 0.10680025 -0.061247222 0.077060245
-0.24523398 -0.057728924
00000000: 9274 75be 0655 a53e d166 f53c 5c14 18be
00000010: cdb2 213e 17ba da3d 5ede 7abd c3d1 9d3d
00000020: 9e1e 7bbe 2a75 6cbd
