Neural_Networks_Adversarial_Attacks_Defense/saved_models/saved/fc_model.pt (torch, 401711 bytes, 8 tensors)

fc1.weight f4 [100, 784]
000000 7e 08 84 b9 22 d2 93 3c 98 cb e2 bc fb ca ca bc
       -0.0002518333 0.018044535 -0.027684972 -0.024754992
000010 b2 43 54 bc 0e c9 13 3c 9a b5 2e ba 5f 7c da 3c
       -0.012955593 0.009020103 -0.0006664634 0.026670633
000020 bc a1 43 bb e1 d4 11 3c c4 8d 26 bc 00 a9 d8 bb
       -0.002985104 0.008900852 -0.0101656355 -0.0066119432
000030 36 ad 03 bd 40 b6 b6 bc 7d 2e 63 bc a8 52 a3 3a
       -0.03214761 -0.0223037 -0.013866064 0.0012460547
000040 30 e0 59 3c e0 56 a5 3c 61 cf ba bc 30 fd 6f bc
       0.013298079 0.020183027 -0.022803964 -0.014647767
000050 87 2c 48 3c a8 d1 e4 3c 93 d6 e2 bb ff 33 ce 3c
       0.012217647 0.027932003 -0.006922552 0.025171278
000060 22 a9 b1 bb 36 43 69 3b 91 82 f9 3c 0c a0 ff bc
       -0.0054217735 0.003559304 0.030457767 -0.031204246
000070 3d 79 ad bc 71 85 0b bc 1a d3 56 bc 05 15 ee 3c
       -0.021175975 -0.008515702 -0.013111854 0.029062757
000080 4d 9c b2 bc 3a b2 7d bc 00 87 c0 bc d3 45 01 bd
       -0.021803046 -0.015484387 -0.023501873 -0.03156073
000090 24 84 a4 bc eb 8e e9 3c a6 9f 6e 3c a3 fc 78 3c
       -0.02008254 0.028510531 0.01456443 0.015196952
0000a0 a4 9c 20 3a 26 5d 90 bc e8 35 f0 3b 0d fc ec bc
       0.0006126857 -0.017622542 0.007330645 -0.02892878
0000b0 88 86 d0 bc 05 be 93 bc f9 ab aa 3c 77 87 9f 3c
       -0.025454774 -0.018034944 0.020833956 0.019473774
0000c0 bb 31 79 bc d7 71 d4 ba 2e 3e af 3c ef f0 08 3d
       -0.015209611 -0.0016208243 0.021391954 0.033432897
0000d0 fe b9 5a 3c 43 e7 94 3b 2b c2 b8 3c 6f 3f a2 bc
       0.013350008 0.00454417 0.022553524 -0.019805638
0000e0 8b 64 cd 3b 3e a4 d5 bc 6a fc be bc ef 58 8e bc
       0.006268089 -0.026079293 -0.02331372 -0.017376391
0000f0 01 af 78 3c 90 8f 5d 3c 54 5a a4 bc a4 35 19 3c
       0.015178443 0.0135229975 -0.020062603 0.009351168
000100 12 62 82 3c a5 1a 16 bc 8e 84 7a bb f5 5c 03 3b
       0.015915904 -0.009161626 -0.0038225981 0.002004442
000110 66 e1 83 3c 46 f8 01 3d 6e eb ba bc 14 3b 05 bb
       0.01609869 0.031730913 -0.02281734 -0.0020329403
000120 68 fc 92 3c 3e ca e3 3c 9b d1 ea 3c c3 c4 f5 3c
       0.017942622 0.027806398 0.0286644 0.03000105
000130 4f 86 9a 3b 78 f4 03 bd 25 4e a0 3a 21 eb b2 bc
       0.004715718 -0.032215565 0.001223032 -0.021840634
000140 0b cf 00 bd e1 78 f5 3c a8 85 d1 3c 6e 70 09 bd
       -0.03144745 0.029964866 0.025576428 -0.033554487
000150 9c 4e ce 3b 43 ae b9 bb bf 5b 99 bb a6 cf 79 bc
       0.006295992 -0.0056665256 -0.0046801264 -0.015247261
000160 90 d0 53 3c 75 c7 8f bc 3f 6c 67 3c 96 d3 95 3c
       0.012928143 -0.017551163 0.014124929 0.018289369
000170 63 2c b3 3c ce 28 3d 3b d9 ad 36 bd d1 2b 29 bd
       0.021871751 0.0028863433 -0.044599388 -0.041301552
000180 53 17 cd 3b 06 60 40 3a d3 18 dc bc ad e1 b4 b9
       0.006258884 0.00073385274 -0.026867306 -0.00034500417
000190 6f 8a 34 3d ee 69 07 3d 45 bd 39 bb 6d 78 d5 bb
       0.044077333 0.033060007 -0.0028341573 -0.0065146
0001a0 fa 1b 01 bd a6 49 d8 bb da 17 d9 bc b6 b8 d8 bc
       -0.03152082 -0.0066005765 -0.026500631 -0.026455265
0001b0 8f 72 ba bb 40 66 9c 3b ce 11 74 bc 70 82 a3 3c
       -0.005689926 0.0047729313 -0.014896823 0.019959658
0001c0 1f b0 a7 bc d9 08 fa 3c 8c 0d d5 3c 63 ac e2 bc
       -0.020469723 0.030521797 0.026007436 -0.027670091
0001d0 ac 9b ee bb 5d 36 26 3c 82 cc 55 3c af 33 76 3c
       -0.007281741 0.010144797 0.013049247 0.015026971
0001e0 31 ca eb 3c 57 a3 5c 3c 60 f3 16 bc c7 29 ae 3c
       0.028782936 0.013466678 -0.009213299 0.021260155
0001f0 21 ee 19 bb eb d9 d0 3c 21 f9 59 3d a7 6a 85 3d
       -0.0023487883 0.025494536 0.053216103 0.06514483
000200 de c1 59 3d d2 c4 20 3c 99 41 be 3c 38 a1 30 3d
       0.0531634 0.009812551 0.023224639 0.0431225
000210 19 3d e6 38 ee a2 da 3b 9c 69 c0 3c 00 2b 4d bc
       0.00010978635 0.0066722548 0.023487858 -0.012522459
000220 2b 08 ac bb ec 1c f7 ba 67 38 fe 3b 09 db a7 3c
       -0.005249997 -0.0018853224 0.0077581885 0.020490186
000230 32 82 02 3d 6f fe ae 3c c2 b2 04 3d f7 f5 d6 ba
       0.031862445 0.021361558 0.03239704 -0.0016400208
000240 7a 0d e2 bc 94 f8 ef 3a 26 f6 34 3d 67 04 7e 3c
       -0.027594317 0.0018308335 0.044180058 0.015503979
000250 0d 9a 22 bc d5 86 a3 bc 66 34 49 bd 57 f1 03 bd
       -0.009924424 -0.019961754 -0.049122237 -0.03221258
000260 04 99 1a 3c 01 14 06 3d c8 3d 70 3d 7d 6c 4d 3d
       0.009435896 0.03273392 0.05865267 0.05015229
000270 2b c5 8b 3d ce 35 4c 3c 54 af 86 3c 9e a7 07 3d
       0.06824716 0.012464 0.016441025 0.033118837
000280 3a 5e 01 3d 07 67 d5 3c fc e9 75 bc 43 57 04 bd
       0.031584002 0.026050104 -0.0150093995 -0.03230978
000290 05 28 e3 bb 24 fc 63 3b 49 40 99 bc aa 0a 34 3c
       -0.006932261 0.0034787739 -0.018707411 0.010988871
0002a0 70 04 f8 bc a1 b1 14 bb 9f 8a ec 3c d5 47 4a bc
       -0.030275553 -0.0022688883 0.028874693 -0.012346228
0002b0 71 be 0f 3d ad 7f b1 3c c8 4e 8a bc d5 46 ef 3c
       0.03509373 0.021667326 -0.016883269 0.02920858
0002c0 61 1a 93 3b a0 c6 de bb 12 5c 01 3d 04 ad 79 bb
       0.0044892286 -0.0067985803 0.031581946 -0.003809751
0002d0 8e 40 84 3c 36 2a 95 bc 34 67 d6 ba 7f 5b b2 3c
       0.016144063 -0.018208604 -0.0016357661 0.021772144
0002e0 e3 ab 0d 3d ed 68 00 3d e9 e6 97 bb 53 9a 01 bc
       0.034587752 0.031350065 -0.004635681 -0.007910329
0002f0 bc d9 89 bc 9d 64 b7 3c cc 3c b7 3c fc 2e 96 3c
       -0.016827457 0.022386843 0.022367857 0.01833295
000300 e2 d0 e2 bc 9c e5 d3 3b 33 87 cc bc 35 e0 a2 bc
       -0.027687494 0.0064665806 -0.024966812 -0.0198823
000310 c0 96 a0 bc c1 2f 3e 3c 55 80 ae bc dd 20 26 3b
       -0.019603133 0.011608065 -0.021301428 0.0025349178
000320 4c fb 1b 3c a0 08 9a 3c 5f c6 90 bc 56 63 6d bc
       0.009520363 0.01880294 -0.017672716 -0.014489016
000330 05 df ae bb 1f fa 61 3d 2c 36 18 3c a0 16 31 3c
       -0.0053366446 0.055170175 0.009290259 0.010808617
000340 68 8a 16 3c 57 14 8b bc 26 34 b1 bc 70 32 71 3b
       0.009188272 -0.016977472 -0.021631312 0.0036803745
000350 1b bb 9e 3c ab 10 fb bb 87 4a 58 bc 79 d6 85 bb
       0.019376328 -0.007661899 -0.013201362 -0.004084405
000360 6d d4 ed bc c7 b7 c5 bc 31 61 8f 3c d5 f7 ef bc
       -0.029031957 -0.024135483 0.0175024 -0.02929298
000370 d0 02 0b bb 7a cd 2a 3d ce 24 44 3c ff f6 cb b9
       -0.0021211393 0.041699864 0.011971666 -0.00038903204
000380 61 eb f0 bc 93 99 85 3c a5 1c d4 bc 1b a5 09 bc
       -0.029409112 0.016308581 -0.025892565 -0.008401181
000390 49 71 cb bb 0d 2a bc bb 85 ea 8a 3c c3 f1 45 3d
       -0.006208573 -0.0057423175 0.01695753 0.048326265
0003a0 78 fc 01 3d 7f 48 69 3d f2 51 1a 3d f9 e1 1e bd
       0.031734914 0.056953903 0.037675805 -0.038789723
0003b0 ce dc 06 3b b3 5e 7d bc 3b 34 9d ba 0e f7 f8 3c
       0.0020578387 -0.015464473 -0.0011993715 0.030391242
0003c0 e1 dd 97 3b 17 49 b7 3c b1 54 fb 3b a5 e1 e3 3c
       0.0046346043 0.02237372 0.007670008 0.027817557
0003d0 0f be 87 3a dc 96 4e bd 84 f3 07 3d c0 4c ab bc
       0.0010356324 -0.05043684 0.03319122 -0.02091062
0003e0 4d f7 07 3b ea db ed 3a 1f 38 59 bc 3b 16 b3 3b
       0.0020746768 0.0018147205 -0.013258009 0.0054652966
0003f0 c0 ab e3 3c dc 31 2a bc 85 08 ba bc 3b 15 52 bc
       0.027791858 -0.010387864 -0.02270914 -0.012822445

fc1.bias f4 [100]
000000 51 84 72 bd f4 fa 79 bd de 57 06 3b 38 5f 8b 3c
       -0.059208218 -0.061030343 0.002049915 0.017013177
000010 67 36 a8 3d 6a 1a a0 bc f2 8f 34 bc e4 72 f2 3d
       0.082135014 -0.019543845 -0.011020647 0.1183832
000020 24 01 a0 3d f9 55 89 3c 0c b6 cc bd ff 8c 2c 3d
       0.078127176 0.016764628 -0.0999566 0.04212665
000030 f8 df d5 bc b7 5b 58 bd 24 c2 2a bb 98 c2 ae 3d
       -0.026107773 -0.05282184 -0.0026055658 0.085332096
000040 a0 25 5f 3b 78 e0 15 3e 30 dd 69 3d 83 18 5f 3d
       0.0034049526 0.1463641 0.057095706 0.054466736
000050 fc 51 c8 bc 0a ea bb 3d 8d 1e f1 3d e5 b7 29 3d
       -0.024453156 0.09175499 0.11773405 0.04143514
000060 4a 9b 1d 3e 1e f9 cc 3d 65 26 cd bd 07 10 97 3c
       0.1539127 0.10008453 -0.10017089 0.01844026
000070 c6 a1 42 3d 10 9b 84 3d 45 a0 17 3e c4 f3 c3 b8
       0.04751756 0.06474888 0.14807232 -9.3437295e-05
000080 61 c6 46 3c 17 c5 d5 bb 27 98 fd 3c 90 cd 04 bb
       0.012132258 -0.006523739 0.030956341 -0.0020264126
000090 80 60 97 3c d7 32 2f 3d 8c c5 dc bd 44 4d b9 3d
       0.018478632 0.042773094 -0.107798666 0.090479404
0000a0 73 8d 1e bd 9a bf 61 bd 75 6b c4 3b 92 ca bd 3d
       -0.038709115 -0.055114366 0.005994255 0.09267153
0000b0 62 fe 14 3c 2f 94 a6 bd 93 9a 09 3c 23 cd c0 bb
       0.009093853 -0.081337325 0.00839867 -0.005883829
0000c0 20 5b 42 bc c9 4c 87 3d 42 f2 be bd 0d 6b 4b 3d
       -0.011862546 0.066064425 -0.09323551 0.04966264
0000d0 2b df be 3d d6 6e 2e bd 41 be be 3d f5 61 35 bc
       0.0931991 -0.04258617 0.09313632 -0.011070718
0000e0 ed e1 ae 3d 1e 83 65 3d 92 24 51 bd ac a0 d0 bc
       0.08539186 0.056033246 -0.051060267 -0.02546724
0000f0 a2 a1 e0 3d 38 3e 53 bd c0 e8 c0 39 b4 e8 f7 3d
       0.10968329 -0.05157301 0.00036794506 0.121049315
000100 d3 e5 7d 3d 5f d7 17 3d fa bc aa bd ec fa 7c 3d
       0.061986756 0.03707063 -0.08336826 0.061762735
000110 31 2c 1e 3d 73 f0 b9 3d 6c 16 3e bd 84 be e9 3c
       0.038616363 0.09079065 -0.046408102 0.028533228
000120 cd 4c a7 bc e9 42 d2 bc a3 b6 05 bd 34 c4 42 3d
       -0.020422364 -0.02566667 -0.03264488 0.047550395
000130 ff b6 ab 3d 6c d2 6a 3d d2 e0 00 be 38 4f b6 bb
       0.08384513 0.05732958 -0.12585762 -0.005563643
000140 de fc 14 ba 8c 6d 9e 3d 37 28 0f be 0d 0a ee bc
       -0.0005683432 0.07735738 -0.13980184 -0.029057527
000150 e4 94 cf 3d 3a 71 d8 3d 7e d5 b3 3d 9f 74 18 3d
       0.101358205 0.10568471 0.08780955 0.037220594
000160 8a fc f9 3b b5 ea a5 bc fd 1f 86 3c 21 1e 91 bd
       0.007628982 -0.020253519 0.016372675 -0.07085825
000170 b1 5e 32 3d 8a 08 84 3b 00 c0 55 bd eb ec b5 bb
       0.043547336 0.0040293382 -0.05218506 -0.0055519245
000180 e1 93 99 bd dc 9f d6 3d dc a3 e7 3c d4 b6 92 3d
       -0.07498909 0.104797095 0.028276376 0.07163778

fc2.weight f4 [100, 100]
000000 53 d2 9f ba 96 1f 58 bd 49 45 b7 3c 89 4b 21 be
       -0.0012193419 -0.052764498 0.022371905 -0.1575147
000010 dc a3 81 3d 34 30 0a 3d e2 a1 74 3b 20 9c ed bc
       0.06330082 0.033737376 0.0037327935 -0.02900511
000020 ba 1e 8b 3d 7b ac 34 bd 26 e1 6c bd c7 d4 40 bd
       0.0679297 -0.044109803 -0.057831906 -0.04707792
000030 2b 42 88 3b 80 92 ae bd 4f ad 1b 3a 3c 4d a3 3d
       0.0041582785 -0.085240364 0.0005938606 0.07973716
000040 2c be 61 bc 11 68 04 3e 6a 2b 0c 3d 12 2e c7 bd
       -0.013778251 0.12930323 0.03422109 -0.09725584
000050 51 28 20 bd 76 f1 05 3e d7 9c 0c 3e 88 15 cb bd
       -0.03910095 0.13080391 0.13731705 -0.09916216
000060 40 ba 14 3c a0 8b 4f 3d 40 db 98 bc 85 72 cd 3c
       0.009077609 0.050670266 -0.018659234 0.025079021
000070 54 9b b3 3d 95 fb 0c bd be 31 6d 3d 26 a7 00 3d
       0.08769861 -0.034419615 0.057908766 0.031409405
000080 a9 57 c5 bd e8 18 a3 bc a8 d5 ad 3d 2f da e2 3c
       -0.096358605 -0.019909337 0.08488017 0.027691929
000090 d4 91 d4 3d e5 2c a3 3d fa 3b b3 bd 7a e3 74 bd
       0.10379377 0.07967547 -0.08751674 -0.05978725
0000a0 5f 37 27 bd 8a a4 64 bd 34 b7 bb bd 5a a7 f5 bb
       -0.04082429 -0.05582098 -0.091658026 -0.0074967565
0000b0 bd 91 cf 3c 90 9a bc bd 14 a6 ad bd 70 4a f3 bd
       0.025338048 -0.09209168 -0.084789425 -0.11879432
0000c0 b0 83 6a bd 8b ed e2 3c a1 63 72 bd e4 af 83 3d
       -0.057254493 0.02770116 -0.059177045 0.06430033
0000d0 47 bd 0b bd d4 45 bc 3a 21 f3 59 3d 58 4b a4 bd
       -0.034116056 0.0014364072 0.05321038 -0.08022183
0000e0 d2 0f eb 3c ac 74 87 bd 97 52 20 3d f2 93 87 bd
       0.028694067 -0.0661405 0.039141264 -0.06620015
0000f0 97 59 a8 bd e1 68 90 bd 8f 54 c8 bc b1 2e 67 3d
       -0.08220213 -0.07051254 -0.024454383 0.056441013
000100 22 d1 de 3d aa f6 32 bd d2 ef b5 3d 58 ba 15 bc
       0.10879733 -0.04369227 0.08883633 -0.009138666
000110 e9 8c 71 bc c6 d5 98 3d 9c 64 62 3d e7 83 bf 3c
       -0.014743068 0.07462649 0.05527173 0.023378326
000120 37 c3 98 3d 60 51 d3 3d 98 7e 0f bd 5e ec 43 3d
       0.07459109 0.103182554 -0.03503284 0.04783284
000130 4e 51 34 3d 45 fb 96 bd d5 08 9a bd 64 de d7 bd
       0.04402285 -0.073721446 -0.07521216 -0.105404645
000140 15 f4 60 ba 18 6f e5 bc 1f c1 c1 bd b3 00 a1 bd
       -0.0008581293 -0.028007075 -0.09460663 -0.078614615
000150 2a 1c 8d bd fc d1 90 3d 34 bf 78 bd 32 33 8f 3d
       -0.068901375 0.07071301 -0.06072922 0.069921866
000160 43 c7 f9 3c ec 36 26 3d d1 13 03 bd de 61 42 bc
       0.030490523 0.04057972 -0.03200132 -0.011864154
000170 f8 94 ba 3d 14 3b e2 bd 06 78 0d bd 0f e4 76 3d
       0.09110445 -0.110464245 -0.03453829 0.060276087
000180 68 cd e2 bb 95 5f ed 3d bc e9 ef bc 3a b6 7b bd
       -0.006921459 0.115904965 -0.029286258 -0.06145308
000190 fe 79 06 3d 28 64 c1 bd 16 6b da 3d c5 f7 38 3c
       0.032831185 -0.094429314 0.10664956 0.011289542
0001a0 2e 70 e1 3b 69 6d a1 ba b2 bc 5f 3d 02 32 da 3b
       0.006879828 -0.0012315932 0.054623313 0.0066587934
0001b0 a3 6e a7 bd 5e 5d 4b 3d 3b bb b2 3d db 9a a8 3d
       -0.08175399 0.04964959 0.08727118 0.08232661
0001c0 74 eb 49 3d 19 5f a6 bd 05 ed 33 3d 5d 01 db 3c
       0.04929681 -0.08123607 0.04392721 0.026734049
0001d0 d9 b4 ba bd a2 23 40 bd e6 c7 b0 bd fa 61 54 bd
       -0.09116525 -0.046908982 -0.086318776 -0.05185125
0001e0 49 bd c8 bc c8 d0 63 bd 0c 58 16 3d 9a 3f 05 bd
       -0.02450432 -0.05561903 0.03670506 -0.03253136
0001f0 5f a2 9b bd b8 63 a8 bd 13 58 0c bd a3 1f 27 3d
       -0.07599329 -0.08222145 -0.03426368 0.040801656
000200 7a 44 d3 bc 63 95 18 3c 5a 43 39 3d 35 be a6 3d
       -0.025789488 0.00931296 0.045230247 0.08141748
000210 03 cf 5e bd ca 2f d9 3d a0 84 c6 3d 7b 3a 9c 3d
       -0.05439664 0.10604818 0.09693265 0.07628342
000220 4d 9a 76 3d 26 5b 61 3d c1 b0 b4 bd 74 5d 93 3d
       0.060205746 0.055018567 -0.08822776 0.07195559
000230 e4 53 fc 3b f4 b6 b3 3c 8e 5b 4b bd d6 48 86 bd
       0.00770043 0.021937825 -0.04964786 -0.06556861
000240 3c 14 8f bd ee 74 9c bc dd a2 9f 3d a9 4a 48 bd
       -0.06986281 -0.019098725 0.077947356 -0.048899326
000250 2f 9a af bc f7 59 eb 3b d5 d0 89 bd a3 ee 31 bd
       -0.021435825 0.0071823555 -0.06729285 -0.043440472
000260 c1 24 a3 3c 93 a6 78 3d af 9f ac bd a6 ce 7c bc
       0.019914987 0.060705733 -0.08428895 -0.015430128
000270 62 21 88 bc 62 59 8c bc b5 53 bb 3d 9a b7 2d 3c
       -0.01661748 -0.017132465 0.09146825 0.010602856
000280 33 08 23 bd 90 58 48 bc f8 e9 ac bc 47 9a 98 bd
       -0.03980274 -0.012228146 -0.021107659 -0.07451301
000290 57 c3 6a 3c d9 9a 8f 3c 12 5c 8b 3c fc d9 71 3c
       0.014328799 0.017529892 0.017011676 0.014761444
0002a0 90 0c 98 bd 6d 68 9a bc d9 4c 07 3c 9b 97 47 bd
       -0.07424271 -0.018848622 0.008258068 -0.048728567
0002b0 42 6c e4 bc f7 77 52 3d 35 3f 78 3d ce f3 5d bd
       -0.027883653 0.05138394 0.060607154 -0.05418759
0002c0 eb 46 20 bc 74 bd 0b bd 92 1b d0 bd 6c e5 81 bd
       -0.009782533 -0.034116223 -0.101615086 -0.06342587
0002d0 a2 10 50 3d a2 64 3b bd 60 0a 29 3d ed 35 55 bd
       0.050797112 -0.045750268 0.04126966 -0.05205338
0002e0 26 34 37 bd 55 3d 57 3c 1a e5 79 3d 7f 1e 94 3d
       -0.044727467 0.013137181 0.061009504 0.07232379
0002f0 a6 8f a9 3d ec e2 66 bc b1 a9 77 3d 2a 89 bc bd
       0.08279352 -0.014092188 0.060464565 -0.092058495
000300 9d 53 36 ba 87 1a a6 3b 7c 63 63 3c 53 52 92 3c
       -0.00069552084 0.0050690803 0.013878699 0.01786152
000310 f5 da 58 3d a8 dc 94 3d 9d 74 6d 3b 35 e5 71 bd
       0.05294319 0.07268649 0.0036232837 -0.05905648
000320 42 d8 d7 bc 45 dc 11 3d 98 db ab 3d 78 ba 98 3c
       -0.026348237 0.035610456 0.083914936 0.018643603
000330 77 90 1e be 59 3e 3e 3d 5a 9e 5c 3d 22 09 8f bd
       -0.15484796 0.046446178 0.053861953 -0.06984164
000340 af a7 e4 3c 2e 75 86 bd e2 d1 d7 bd b3 43 e8 3c
       0.027911989 -0.06565319 -0.10538079 0.028352594
000350 ee ac 17 bc 13 a4 0f 3e 08 97 9c bd 50 23 e7 3c
       -0.009257538 0.14027433 -0.076459944 0.02821508
000360 50 ca cb 3c e6 57 88 bd d7 fb 82 bc 68 d3 b5 3d
       0.024876744 -0.0665739 -0.015989227 0.08878213
000370 01 08 a5 3d 1b 48 e7 bd af db 58 be 59 9d c9 3c
       0.08058167 -0.1129305 -0.21177553 0.024611162
000380 26 80 ba 3d e0 fa 27 bd 26 f0 45 3d 82 b7 10 3e
       0.091064736 -0.041010737 0.048324727 0.14132503
000390 94 18 09 be ce 75 c5 3d 3b 3b a7 bd 1d 60 4c 3d
       -0.13388282 0.0964161 -0.08165594 0.04989635
0003a0 23 49 08 3d 7c e8 50 3d 91 57 43 3d 50 11 d4 3b
       0.033272874 0.051002964 0.04769093 0.0064717904
0003b0 b4 bc c1 bc 0d 7f 2e 3c 96 22 b4 bd 4d ea e8 3d
       -0.023649551 0.010650408 -0.08795659 0.11372814
0003c0 eb c2 1a be e7 6f 1a bd f3 1c 91 bb d1 0a d6 3d
       -0.15113418 -0.037704375 -0.0044285 0.10451282
0003d0 52 ee 1a be 0b bc 3b 3e 7d 26 d8 3c 7c e5 9d 3d
       -0.15129974 0.18333451 0.02638554 0.07709786
0003e0 66 12 06 be 9b a8 96 bc 42 7b 43 3b b2 88 8e 3d
       -0.13092956 -0.018390944 0.0029828106 0.06959666
0003f0 0f 23 47 bc 22 c8 12 3c d4 02 fd bd 0c dc ed 3c
       -0.012154355 0.008958848 -0.12354055 0.02903559

fc2.bias f4 [100]
000000 86 7f 08 3c 2a d8 a9 3d 51 21 6f 3c 4f 66 7e bd
       0.008331185 0.08293183 0.014595346 -0.062109288
000010 9c a9 1a 3e f6 f7 e1 3d 7d bc ae bc ac 6f b2 bd
       0.15103763 0.11033623 -0.021330113 -0.08712706
000020 be fe a7 bc a2 17 ae 3d 37 07 37 bd 6f 1f da 3d
       -0.020507213 0.08500601 -0.044684615 0.10650527
000030 0c e2 74 3e 2a 1a 26 bd c8 1a dd 3d 8f 38 1b 3e
       0.23914355 -0.040552296 0.10796124 0.15158294
000040 c9 65 9f 3d ea 8c 95 3d 46 62 54 3e d4 74 12 3e
       0.07783086 0.07302268 0.20740613 0.14302379
000050 5f 9a 26 3d 4b 63 fb bc c0 51 df 3c 1d 18 a2 3d
       0.040674563 -0.030686995 0.027260661 0.079147555
000060 61 60 e5 3d 59 7b fc 3d ef 80 2b 3e be f6 cd 3d
       0.112000234 0.12328214 0.16748403 0.10056828
000070 03 f7 be 3d a0 b4 29 3d e0 2e 29 3e bd 03 6e 3d
       0.093244575 0.041432023 0.16521788 0.058109034
000080 b8 10 af 3d 65 63 e9 3d 1f 00 94 3b 21 cb 45 3d
       0.08548111 0.11395911 0.004516616 0.048289422
000090 65 75 93 3d a6 51 6d bd b3 de e3 bb 1f d6 4d 3e
       0.072001256 -0.057939194 -0.006954038 0.20101212
0000a0 5f 77 62 3e 4b f3 43 3d b8 7e cb 3d 77 15 36 3d
       0.22115849 0.047839444 0.09936279 0.044454064
0000b0 12 4a 25 3c a0 a4 58 bc b0 75 c6 bd 94 20 fb 3d
       0.0100884605 -0.013222843 -0.09690416 0.12262073
0000c0 71 c0 2e bd 99 c2 c2 bb 2a d5 ca 3d 40 b1 83 bd
       -0.042663995 -0.005943608 0.09903939 -0.06430292
0000d0 f3 27 16 bd e8 8b dc bc 3f c5 e1 3d 3a 2c 1e 3e
       -0.036659192 -0.026922181 0.1102395 0.15446559
0000e0 b0 2d 98 3d db 9e d8 3d ea 72 a8 3d 5c f4 14 3e
       0.07430589 0.10577174 0.08225043 0.1454634
0000f0 74 87 25 bd 63 fd 10 3e c1 c4 27 3e fb 09 5f bd
       -0.04041238 0.1415916 0.1638365 -0.054452877
000100 1e 71 c1 3b 49 9e 83 3d 94 05 a2 3d a1 24 4d 3c
       0.005903377 0.06426675 0.0791122 0.01252094
000110 0f 52 9e 3c 21 38 1e 3e da f8 b1 3b 8a c7 b2 bc
       0.019326238 0.15451099 0.0054312767 -0.021823663
000120 6e c9 a9 bc fa d8 c8 3c 21 50 4f 3d ae 11 29 3e
       -0.020725932 0.024517525 0.050613526 0.1651065
000130 af b4 f6 bc 3e 87 e1 3c 9e 41 82 bd af 6f de bc
       -0.030115454 0.027530309 -0.06360172 -0.027152864
000140 20 06 39 3d 1c ea bb bd 54 d5 39 bd 87 9f 86 bd
       0.045171857 -0.09175512 -0.04536946 -0.06573396
000150 f9 fa 8a 3c 22 f8 8e 3b 2e 92 0f 3e b3 3a c5 bc
       0.016965376 0.004363076 0.14020607 -0.024075842
000160 20 98 7d bd 32 0f 00 be 13 c5 8d bd 66 77 76 3a
       -0.061912656 -0.12505797 -0.069223545 0.0009401947
000170 5b 43 d9 3c a3 fa 04 bd 7e 39 00 bb 5c 55 e2 3d
       0.026521375 -0.03246559 -0.0019565518 0.11051437
000180 88 95 af 3d 44 91 06 be 46 a3 c4 3d d9 7e b6 3c
       0.08573443 -0.13141352 0.096014544 0.022277283

fc3.weight f4 [100, 100]
000000 fd d2 e3 bc bc 27 9c bd 63 8e bb 3d ba 1a 04 3d
       -0.027810568 -0.07624766 0.091580175 0.03225205
000010 0f 42 a6 3d 2d a9 81 bd 48 01 5b 3d 26 b7 d3 3c
       0.081180684 -0.06331096 0.05346802 0.025844168
000020 b2 4a 4a 3d c3 e9 8c 3d b7 67 d8 3c 3e bf b3 3c
       0.04938764 0.06880524 0.026416643 0.021941777
000030 48 43 bf 3d a3 fd 0b bd 1d e7 66 bd 70 fd 2f bc
       0.09339005 -0.034177434 -0.05637275 -0.010741577
000040 6f e6 4e 3e 93 9b b7 3d 3e c5 46 3e f8 c1 6f 3d
       0.20205091 0.0896522 0.1941118 0.058534592
000050 1a 68 cc 3d f6 2d df bc 89 67 2c bc 9f ad 8d 3d
       0.09980793 -0.027243596 -0.010522732 0.06917881
000060 44 86 46 3d 73 6c a3 bc 11 29 82 3d b3 ae 2b ba
       0.04846789 -0.019949174 0.06355489 -0.00065491645
000070 c7 f5 c5 bd 96 6c ec bb a4 5e d0 3d cb 71 cf bd
       -0.09666019 -0.007215093 0.10174301 -0.10129126
000080 86 5d 74 3e 2c d1 9b 3c 25 77 28 bd 34 d3 1c be
       0.23863801 0.01902064 -0.04112925 -0.15314943
000090 5a 45 a9 bd 81 44 80 3d bf 69 b8 3b bb e1 50 bd
       -0.08265181 0.06263066 0.0056278403 -0.050996523
0000a0 12 2b 1a 3e 05 a8 af bd 62 ab 94 3d 73 da 8c bd
       0.15055493 -0.08576969 0.07259251 -0.068776034
0000b0 19 a2 a5 3d f7 82 ae 3d e5 46 23 bd ec 7e 89 3d
       0.08087558 0.08521073 -0.039862532 0.067136616
0000c0 fd 82 a7 bd 63 8a 41 bd 19 da dc 3d ba d1 b7 3d
       -0.08179281 -0.047251116 0.10783786 0.08975549
0000d0 de 00 80 3d 9a 05 5c bd 3b 5b 0a bd 61 a6 15 3e
       0.062501654 -0.05371628 -0.03377841 0.1461425
0000e0 3f e0 2c bd 86 70 6e 3d 0a 93 d9 3d 50 7f 96 3c
       -0.042206045 0.05821278 0.106237486 0.018371254
0000f0 50 21 58 3d 21 56 40 3e 95 43 8a bd c7 36 aa bd
       0.052766144 0.18782856 -0.067511715 -0.08311229
000100 e1 61 05 bd 38 03 f7 bb 88 3f eb bd 2e 01 ee bd
       -0.032564048 -0.0075382255 -0.11486727 -0.11621319
000110 1d c4 fc 3c 8f ed 2c be eb 3c 54 bd 9d 9b 71 3d
       0.030855233 -0.16887496 -0.05181591 0.058986295
000120 65 d4 0a 3e 8e 38 b7 3c 23 b9 a7 bd 34 23 cc 3d
       0.13557585 0.022365835 -0.08189609 0.09967652
000130 b8 c1 5d bd 26 a0 c0 bc f0 90 bc bd 22 07 24 3d
       -0.054139823 -0.023513865 -0.09207332 0.040045865
000140 0a 9a 68 3d 8b 55 9d 3d 94 5e ba bc 53 b7 41 3c
       0.056787528 0.07682332 -0.022750176 0.011823493
000150 62 eb a9 bd b5 6c a0 bd 8c 5d aa 3c 96 f9 a8 3c
       -0.08296849 -0.07833234 0.02079656 0.020626824
000160 c1 67 19 3d 19 17 a4 3c c1 18 fe 3d 1d d4 8d 3d
       0.037452463 0.020030545 0.12407065 0.06925223
000170 13 f8 55 3a dd c3 19 3d f8 fe 81 bd 9e 69 d8 3d
       0.0008162271 0.037540305 -0.063474596 0.1056702
000180 5d c3 ae 3d 64 31 84 3c 68 c5 85 3c 79 6b 55 bd
       0.08533356 0.016136833 0.016329482 -0.052104447
000190 bf a0 d1 3d 94 c3 14 3d 92 f4 b1 3d c0 59 c6 3c
       0.10235738 0.03631933 0.08689226 0.024212718
0001a0 80 50 7e bd db d8 4e 3e a2 73 f7 3d 2b 52 ca 3c
       -0.06208849 0.20199911 0.12082602 0.024697384
0001b0 b4 89 9c bd 67 cc 25 3e ba 73 c2 bb 06 b7 a4 bd
       -0.07643452 0.16191255 -0.005934206 -0.080427215
0001c0 ea 5b 31 3d 0e 07 51 bd de 44 89 3d a0 2e 35 3d
       0.043300547 -0.05103212 0.067025885 0.04423392
0001d0 af 9e b8 3c 13 ad 5b 3d 23 77 67 3e 1c 84 d7 bd
       0.022536604 0.053631853 0.22604041 -0.10523245
0001e0 c2 0c ed bc 35 cc 9d 3b 87 63 18 3d ea 1b 54 be
       -0.028936747 0.004815603 0.03720429 -0.20713773
0001f0 3e 8a c1 3e be 19 76 bd bd f9 6b 3d d6 aa ab 3c
       0.37800783 -0.060083143 0.057611216 0.020955484
000200 c8 2a 23 be d4 66 6c 3d ac fe f5 bc 7f b2 84 bc
       -0.15934289 0.057715252 -0.030028664 -0.016198395
000210 85 bc 47 bd b2 6e 37 3c 76 18 4a bd a8 9d e9 bd
       -0.04876377 0.011195825 -0.049339734 -0.11407024
000220 8e b2 d4 3d 81 64 79 bd 36 55 13 3e b1 85 a6 bd
       0.10385619 -0.060886864 0.14387974 -0.08130968
000230 32 4a 7e 3c ea d4 9b 3d 95 34 79 3e 10 b2 5a 3d
       0.015520619 0.076089695 0.24336465 0.05339247
000240 d2 80 31 3e 22 dd 16 bd 8e b9 16 3e db 49 3a be
       0.17334297 -0.036831982 0.14719221 -0.18192236
000250 17 ee 21 be 78 ce c5 bd b4 e9 57 3c d0 ed 51 bb
       -0.1581348 -0.096585214 0.013178278 -0.0032032616
000260 11 88 45 3c af f1 8f 3c 68 fb 53 bd 24 c4 e2 3d
       0.012056367 0.017571298 -0.05175343 0.11072567
000270 6a 09 57 be af 7d 8d 3d f6 f7 11 3e e4 62 69 3d
       -0.20999685 0.06908738 0.14254746 0.056979075
000280 c5 0e b5 bc ed 6e 9f 3d 73 f2 4a 3e 14 aa 75 bd
       -0.02210177 0.07784829 0.1981905 -0.059976652
000290 2d 19 99 3c 3a 29 b3 bc fa 12 7b bd d1 b5 1d bd
       0.018688763 -0.021870244 -0.061297394 -0.03850347
0002a0 75 91 0d bc 13 d8 0e bc a7 13 95 bc ad c9 52 bd
       -0.008640637 -0.008718508 -0.018197848 -0.051461864
0002b0 eb 42 34 be 84 59 23 3e 97 f3 ee 3b f6 14 b1 bd
       -0.17603652 0.15952116 0.0072922218 -0.08646576
0002c0 28 f8 a3 3c 98 86 26 3d 3d ec 3a bd f8 19 62 bd
       0.020015791 0.040655702 -0.04563545 -0.055200547
0002d0 c8 c6 07 3e a3 e4 93 3d 05 4c 1a 3d fe d1 93 3d
       0.13259423 0.07221343 0.037670154 0.07217787
0002e0 7d 8f b0 bd 5b a9 6c bd 88 0d 08 be 9f 10 30 3d
       -0.08621118 -0.057778697 -0.13286412 0.0429846
0002f0 5f 5e 30 bc 24 36 4f bc d2 22 14 3e 88 3c 7e 3d
       -0.010764687 -0.0126471855 0.14466408 0.062069446
000300 0a 0d 5d bd 8c 36 34 3c 68 83 36 3d 72 36 5f bc
       -0.053967513 0.010999333 0.044558913 -0.013623821
000310 fd f3 35 3b 9b 2c 24 3b 89 90 df bd a1 c7 ac 3d
       0.0027763837 0.0025051 -0.1091624 0.08436514
000320 60 81 65 3d 10 50 28 bd d7 16 cb 3d eb ff a3 bc
       0.056031585 -0.04109198 0.09916466 -0.020019492
000330 b2 62 00 39 ed 83 8a 3c 75 79 66 bc d1 c7 2e bd
       0.00012243798 0.01690861 -0.014067044 -0.04267103
000340 28 c1 cd bb ba 20 4a bd 18 8d 16 bd c3 58 82 bd
       -0.0062791295 -0.049347617 -0.03675565 -0.06364586
000350 91 bc 86 3d 3f 8a b0 3d ae 9e a4 bd 2f 59 59 3d
       0.06578935 0.08620118 -0.08038078 0.053063568
000360 b2 02 07 3e 95 f2 a1 bd 6f 38 1b bd 97 10 97 bd
       0.13184622 -0.07907597 -0.037895616 -0.07376211
000370 35 6a e7 3c 95 33 ae bc a8 3c 8b 3d 35 79 1c bd
       0.028248886 -0.02126483 0.06798679 -0.03820153
000380 62 ba 4f 3d 3a 33 bc 3c ed 2d 14 3d c5 6b 57 3d
       0.050714858 0.022973645 0.03617661 0.05259301
000390 f8 61 2d 3d 46 ce 66 3d d0 23 8c 3c 53 f1 43 3c
       0.04232976 0.05634906 0.01710692 0.011959392
0003a0 e8 9a 54 bc ca e1 aa 3d c6 8b fd bc 0a 81 1f 3d
       -0.012976386 0.08343847 -0.030950438 0.03894142
0003b0 58 8e 06 3e 2a 52 b6 3d 65 c1 87 3c c0 9c 18 3e
       0.13140237 0.0890239 0.01657171 0.14903545
0003c0 52 5a a8 bd bc eb 19 bc ed 4a 89 bd 4f 63 e5 3d
       -0.08220352 -0.009394582 -0.06703744 0.11200582
0003d0 83 6f e5 bc 06 85 6b 3d 9d 9d a4 39 af 39 b1 bc
       -0.028007274 0.057499908 0.0003139795 -0.021633951
0003e0 d5 cd a1 3d e4 1e 63 bd 40 df 89 3c 9b 6a 5e 3c
       0.079005875 -0.05544938 0.016830087 0.013575221
0003f0 61 2a c3 bc 04 de a1 bb 7d 26 a3 3d 0c 8d cc 3d
       -0.023823919 -0.0049397964 0.079663254 0.0998784

fc3.bias f4 [100]
000000 80 10 e4 bc 9f 31 91 3d 18 b8 29 3e 26 80 39 3e
       -0.027839899 0.070895426 0.16574132 0.18115291
000010 92 5d 9a 3c 39 f1 01 3e 6b ad e3 3c 1c 41 8b bd
       0.018843446 0.12689675 0.027792653 -0.06799528
000020 9f cd 8f bc c7 be 44 3d 69 79 5f bd 96 5b 5d bd
       -0.017554102 0.048033502 -0.054559145 -0.05404242
000030 09 f5 f6 3d eb 44 f6 bc ca 10 6f bd d0 55 20 3c
       0.120584555 -0.03006216 -0.05836562 0.009786084
000040 e5 dd 28 3e 44 9f a3 bd fd f0 b2 3d 82 78 20 bd
       0.16490896 -0.07989362 0.08737371 -0.039177425
000050 9a d4 87 3d 6f 20 e7 3d e0 28 b3 bd 73 43 26 3e
       0.066323474 0.11285483 -0.08748031 0.16236667
000060 24 24 d6 3c 15 59 a1 bd ce 5d da bb 4e 2b d3 3d
       0.02614028 -0.07878319 -0.0066640144 0.10310994
000070 92 60 60 bd 9c f2 13 3d a0 94 28 bc 4d d1 74 3d
       -0.054779597 0.036120042 -0.010289341 0.059769917
000080 1f f2 eb 3d 27 97 97 3d cd b3 2a bd 26 64 33 bd
       0.1152079 0.07401877 -0.041675378 -0.04379668
000090 aa 90 08 3d 31 00 30 bd 7f 0a d3 bd 3b e7 ee 3d
       0.033341087 -0.042968933 -0.10304736 0.116651975
0000a0 6c 25 35 bc 48 d2 f7 3c 59 5a d9 3d 55 15 38 bd
       -0.011056285 0.030251637 0.106129356 -0.04494222
0000b0 26 e1 c5 3b d4 ec 8b 3c 77 e9 7e bd 64 c8 8b bd
       0.0060388027 0.017080702 -0.06223437 -0.06825331
0000c0 a2 ee 26 3e 7e 37 27 3d bf 2b 40 3e b6 18 ab 3d
       0.16301969 0.040824406 0.18766688 0.083543226
0000d0 82 0a e3 bc b7 a3 06 3c 2f e7 0c 3e 01 99 15 3e
       -0.027714971 0.008217744 0.13760065 0.14609148
0000e0 ca 1e ed bc 4e 42 47 bd d4 49 11 3e 25 47 49 bd
       -0.028945345 -0.048647217 0.1418832 -0.049140114
0000f0 ad fe 4d 3d 70 d2 62 3d 66 68 18 3d 7f 91 6b 3d
       0.050291706 0.05537647 0.037208937 0.057511803
000100 4e 27 5e bc 6d 93 30 3e cd 4f 2b bd 01 47 83 bc
       -0.013559176 0.17243738 -0.04182415 -0.016025068
000110 32 d2 d8 bc 72 27 70 3d a8 3f a0 3d 09 93 05 3d
       -0.026467416 0.058631368 0.078246415 0.032610927
000120 30 4b ef 3d 53 37 e9 bc a8 03 bf bd 83 5d a2 bd
       0.11684263 -0.028468763 -0.09326869 -0.07927992
000130 d9 50 2d 3e 51 92 b5 3c 86 3e 06 3e 68 f7 0d 3e
       0.16925372 0.022164496 0.13109788 0.13863909
000140 1d 6f ab 3b 22 4b 48 bc d1 37 f7 bc b9 e9 04 3d
       0.0052317516 -0.012224944 -0.030177983 0.032449458
000150 6e af 4c 3d 0d d5 2c 3e 9d 1b 8a bd 20 f5 5b 3d
       0.04997199 0.16878147 -0.06743548 0.053700566
000160 b5 47 76 3d a9 5b 7c 3d 19 78 e7 bc d1 41 7f 3d
       0.06012698 0.06161085 -0.02825551 0.062318627
000170 b8 e0 9c 3c 8a bb 36 bd d9 5e 78 3d cf 16 78 ba
       0.019150123 -0.044612445 0.06063733 -0.0009463848
000180 64 cf 27 bb 07 e8 f2 3d de 0a d2 3d 24 4d 01 3e
       -0.0025605792 0.11860662 0.10255979 0.12627083

fc_out.weight f4 [10, 100]
000000 f9 cd bb be ff db c5 be e8 7f 27 3c 9b 01 9c be
       -0.36680582 -0.38644406 0.010223366 -0.30469975
000010 8e df 00 3e 9c 59 64 be d7 32 a5 3e 03 49 8b 3e
       0.1258528 -0.22299808 0.3226535 0.2720414
000020 0a 50 89 bc 8b 19 8a bd 76 6d de bc b4 18 f0 bc
       -0.016761798 -0.06743153 -0.027151804 -0.029308654
000030 59 77 00 3e 70 d9 8a 3e 00 63 0b bc 81 4f 8e bc
       0.12545528 0.27119017 -0.00850749 -0.017371895
000040 f9 b9 76 be 1c d5 0c 3d b4 10 6a 3d c2 72 0e be
       -0.2409438 0.034382924 0.057144836 -0.13910964
000050 37 8f ab 3e 84 0c b3 3d 67 d9 ae bd aa 5e b3 be
       0.33507702 0.087426215 -0.0853756 -0.3503316
000060 f1 3c a6 be aa 7f bc 3e 60 dd e1 bc 11 00 8f be
       -0.3246837 0.3681615 -0.02757138 -0.27929738
000070 ab 49 f1 ba 34 00 4a 3e c6 d5 25 3e a4 82 2f be
       -0.0018408796 0.1972664 0.1619483 -0.17139679
000080 5b f8 16 bd ae a1 a8 3e d3 b0 41 3e c0 b5 08 bd
       -0.036857944 0.32935852 0.1891511 -0.033376455
000090 dc 0f 6b 3e 5a d9 2e 3e 77 63 6c 3c 3f ca e5 bd
       0.22955269 0.170751 0.014428011 -0.11220216
0000a0 a1 7d 84 bd 9a bd 3e 3d 9d b5 c2 be 14 66 cd 3d
       -0.06469274 0.046567537 -0.38029185 0.100292355
0000b0 4b 11 c4 3e 03 1e 26 3e 28 0e 8a 3d 64 8b af bc
       0.38294443 0.16222386 0.06740981 -0.021428771
0000c0 d7 86 c8 be 44 ec 48 be 07 fa 60 be df 5a 95 be
       -0.39165375 -0.19621378 -0.21970378 -0.29170892
0000d0 eb 0b 17 bd 53 65 bf bd 51 d0 10 be 63 a0 e3 bc
       -0.0368766 -0.09345498 -0.14141966 -0.02778644
0000e0 8a 15 27 3e 12 c6 2d 3d 4e 8e 40 be 1d 1c a8 3e
       0.1631681 0.042425223 -0.18804285 0.3283395
0000f0 96 4d 8a be e1 6f 57 3d 98 d6 c8 3e be 18 31 3d
       -0.27012318 0.05259693 0.39226222 0.043236487
000100 a3 f4 63 bd de cb 65 be 06 97 2a 3e d9 33 f5 3e
       -0.055653226 -0.2244105 0.16659173 0.4789112
000110 4c ed 46 3d a4 ae ae bc 3f e6 d0 bd 96 47 43 3e
       0.048566148 -0.02132351 -0.10200166 0.19070277
000120 24 b1 53 be 0b ea 8b bc 23 18 2d 3c 76 34 9d 3b
       -0.20673043 -0.017079374 0.010564837 0.0047975136
000130 a1 6a 27 bc 8c 6d 49 3e d4 a1 1a 3d 83 57 33 be
       -0.010218293 0.19670695 0.037751988 -0.17513852
000140 68 ad 86 bd 7e 28 11 bd da 91 15 3c 2d b5 a7 3e
       -0.06576043 -0.035439007 0.009129012 0.32755414
000150 b3 81 95 bd 72 d6 84 be 9f df d5 3d bf c2 8f bc
       -0.07300129 -0.2594486 0.10443043 -0.017548917
000160 d5 65 10 be ed 02 7f 3e bf 97 2a bd 12 5d 01 3e
       -0.14101346 0.2490346 -0.041648623 0.1263316
000170 b8 47 09 3e 2f 52 d7 bd a4 5a 2f bd da d0 d6 3c
       0.13406265 -0.10513722 -0.04281105 0.026222635
000180 2a 60 81 3b ee d8 5b 3e 67 ff 69 be 4b 67 e5 bc
       0.003948231 0.21469471 -0.22851335 -0.028003355
000190 8a 3b 64 be 3d 6a 8f 3e aa e5 f0 3d dd 6f b5 3e
       -0.22288337 0.2801074 0.11762555 0.35436907
0001a0 72 d8 01 be 84 94 9f be 36 c6 da 3d 5b 12 98 be
       -0.12680224 -0.31167996 0.10682337 -0.29701504
0001b0 b3 34 f0 be e4 55 bb 3b 14 be 01 bd 46 cd 1f bd
       -0.46915206 0.005717026 -0.031675413 -0.039014123
0001c0 42 e9 48 3e 35 06 7d bd b4 24 8f 3d 44 d0 20 3e
       0.19620231 -0.061773498 0.069894224 0.15704447
0001d0 8b 84 87 3e 50 7f 6d bd 13 b6 47 be ae 0d 88 3e
       0.2646831 -0.057982743 -0.1950305 0.26572937
0001e0 b7 55 02 bd c5 48 15 be 47 0d 35 3b 53 3e c7 3e
       -0.031820025 -0.1457854 0.0027626322 0.38914737
0001f0 2d 1c 21 3e 0e d8 55 be 28 7a 02 3d dd 92 ac be
       0.15733404 -0.208832 0.03185478 -0.33705798
000200 e9 17 6c be c3 56 cd be d5 17 18 be 55 55 81 3e
       -0.23055996 -0.40105256 -0.14852841 0.25260416
000210 d8 19 74 3e d8 f0 77 be 54 b6 00 be 76 9c 1a be
       0.23837984 -0.24212968 -0.12569553 -0.15098748
000220 3f 32 28 be da b7 aa bd c0 eb 36 bd db ef 8c bd
       -0.16425417 -0.08335848 -0.044658422 -0.06881686
000230 0f d2 2c be 5d 94 bd bd 87 dc 25 3e 9f aa 5d 3b
       -0.16877006 -0.09256814 0.16197406 0.0033823622
000240 a3 20 63 be fc fd a2 be b6 88 d2 3b 45 1d 51 3e
       -0.22180419 -0.318344 0.0064249886 0.20421322
000250 c2 79 ba 3e a7 14 46 3d 26 4b 7d 3e ab e4 9b 3e
       0.3642102 0.04835954 0.24735698 0.30447897
000260 18 1a 9f bd 68 ef 83 3d f8 34 eb bd 63 2f cb 3e
       -0.07768649 0.064421475 -0.11484712 0.3968459
000270 97 66 d6 3d 07 a5 75 bd 10 7a 12 3e c0 ff 78 3d
       0.10468786 -0.059971835 0.14304376 0.060790777
000280 a5 aa b9 3d 44 37 f2 be e0 5c 29 be bb 0c 6e be
       0.09065751 -0.4730779 -0.16539335 -0.23247044
000290 d6 1d 40 3e 5c dd c9 3e b9 17 32 3d e9 e1 46 be
       0.18761382 0.39426696 0.043479655 -0.19422115
0002a0 b0 c6 4b 3e 49 7a 07 bd 8a d4 11 3e 94 40 64 3c
       0.19900012 -0.033075605 0.14241233 0.013931412
0002b0 04 16 1b bc b3 cc 5b 3e 27 a2 82 bc 4f 25 3e 3d
       -0.009465698 0.21464805 -0.01594646 0.0464223
0002c0 4c 7c d7 3e fa 74 ca 3c b7 03 1e be d2 29 a9 bd
       0.42087018 0.024713982 -0.15431105 -0.0825993
0002d0 5d 43 79 3c 8e 2f 57 bc 47 02 f9 bc d1 ab 86 bd
       0.015213815 -0.0131338965 -0.030396594 -0.0657574
0002e0 a3 7e 8b be 8d 95 7f 3e 96 07 96 be 49 5d 96 be
       -0.27245054 0.24959393 -0.29302663 -0.29368046
0002f0 25 72 6a be 68 dd 8f bd b9 ac 2d bb 1b 7f 8e bc
       -0.22895105 -0.07024652 -0.0026500656 -0.017394593
000300 ab 87 7a 3e 7d 84 16 be 7c 46 76 3e 54 84 42 3d
       0.24465816 -0.14698978 0.24050325 0.04748948
000310 d4 76 3b 3e f0 4b a0 bd a0 c8 ca 3e 05 0a e5 bd
       0.18307048 -0.07826984 0.3960619 -0.11183552
000320 08 93 dc 3d 9b 57 b4 3e c1 71 12 be 18 b4 a5 be
       0.107702315 0.35223088 -0.14301206 -0.32363963
000330 8c e9 84 3e 29 46 bf 3d d4 f1 83 3e a5 fd 81 be
       0.25959432 0.09339554 0.25770438 -0.25388828
000340 d9 73 b7 be cf f9 8b bd 44 9c 39 bd ab 90 54 bd
       -0.35830572 -0.068347566 -0.045315042 -0.05189578
000350 72 aa 58 be 96 fe 01 be d6 ac 7a bd 40 a7 68 be
       -0.2115877 -0.12694773 -0.061199985 -0.22720051
000360 06 25 5b be 38 3b 34 3e 3e 43 80 3e 04 a4 46 3e
       -0.21400842 0.17600715 0.25051302 0.19398504
000370 e3 a2 c2 bd da 37 9d 3e b4 bc 59 bd f6 6f 64 3d
       -0.095037244 0.30706674 -0.053158477 0.055770837
000380 66 3e e3 ba 46 e3 14 3e c5 43 85 bd ef a5 d5 be
       -0.0017337322 0.14539823 -0.06507067 -0.4172816
000390 d2 41 e3 bd b3 a7 54 3e 05 87 ca 3e b8 f0 5b bd
       -0.110965386 0.20767097 0.39556137 -0.053696364
0003a0 0c 7f 94 3e 90 bd 95 bc 2b 34 88 3e 3b 30 9d 3c
       0.2900318 -0.018278867 0.266023 0.019188037
0003b0 cb b5 9f 3e c7 25 1a be 4f 68 46 bd 4c f1 90 be
       0.31193385 -0.15053473 -0.04843932 -0.28309095
0003c0 55 59 52 bd 14 f3 88 bd 06 89 eb bb b8 4b 55 bd
       -0.051354725 -0.066869885 -0.0071879653 -0.052074164
0003d0 5c 58 af bd f0 85 80 3d f6 67 60 3d 06 d7 40 bd
       -0.08561775 0.062755466 0.054786645 -0.047080062
0003e0 b5 83 37 be b9 d9 95 3d 96 94 42 be 02 55 a2 be
       -0.17921336 0.07316918 -0.19001994 -0.3170548
0003f0 18 91 3b bd e1 89 88 3b 5b 8a 9e 3d cf 43 16 be
       -0.04579267 0.004166827 0.07741233 -0.14674304

fc_out.bias f4 [10]
000000 a8 55 6f be b3 e9 b1 3e e2 5d d8 bd 77 57 c1 bd
       -0.23372519 0.3474861 -0.10564782 -0.09440511
000010 c7 f2 b6 3d ea f5 44 3e 36 48 0d be 85 c3 d8 bc
       0.08933025 0.19234434 -0.13797078 -0.026460418
000020 52 c5 8a be fd 4b a0 3c
       -0.27103668 0.019567484
