Neural_Networks_Adversarial_Attacks_Defense/saved_models/saved/fc_model_vs_PGD.pt (torch, 401711 bytes, 8 tensors)

fc1.weight f4 [100, 784]
00000000: 74a5 143b ae0a 0cbb e708 84bc d95e 2abc
00000010: 18af d33b 1d44 0c3d ef2d fd3c 14c4 ba3b
00000020: f454 02bd ee98 0e3c bc90 c13a a101 ff3c
00000030: ef0f f33c 922a 263c 1080 793d 6fd4 2c3d
00000040: c1f2 33bc a17b 363d 466a 603d a62e c53c
00000050: 25e4 0d3d 0c66 9e3b 541c a73c 3844 0f3d
00000060: 24cc 2c3c 225e 4f3c c07b 0bbd 5434 cbbb
00000070: 5092 223d 2e7e 273c 9950 383d a1f5 df3a
00000080: c774 38bc 5ccc a03b 9410 d1bc b28b c3ba
00000090: d5af 943c 5eb3 283d dd62 84bc a0f5 313c
000000a0: 51d2 4a3d 6f49 0f3c 3c0b b93c 6d4c 183d
000000b0: 9764 d83c fb79 453d 3b04 5e3d 438c 843d
000000c0: 5f81 863d eb8e 733b 835b 0c3d 372c 463c
000000d0: 7983 263d 6e70 bc3b f792 3cbc 1451 0abd
000000e0: e24c ed3a 7a86 843c 7ff7 cbbb 4625 e9bc
000000f0: da96 8fbc 5e27 a7bb b002 43bc 87dd e5bc
00000100: 0903 b93c 72b8 a03c 6ac0 c33c d697 113d
00000110: fb3a 153c c72e 603d cbcf 9d3c 290b bf3c
00000120: 1a6a 143d fe36 1cba 9e70 ad3b 743a a33c
00000130: 229c 823c 36ce 59bb b18b d5bb 96fd 1fbc
00000140: c2e4 d73c 2746 1d3d f569 cdbc afbc d63c
00000150: 4d97 8cbd b18d 273c 844c a63c 32c9 3a3c
00000160: 0e54 ea3b a505 38bc ca19 44bc 2b5a 28bc
00000170: d3aa 5dbc 37f5 8cbc 9208 d83c 6e0d 013d
00000180: af94 073b 01d4 5b3d 3beb e73c 31c3 493c
00000190: 4e21 463d a28f f6bb 3445 39ba f48b 9cbc
000001a0: 6fc0 06bb 0b39 9fbc 4245 013d f9df 033d
000001b0: 807d 093d 3411 073d 9a48 c83c 3f2f ecbc
000001c0: f4b7 dcbc 1268 1cba 1a8d 113c 9dc1 323c
000001d0: b38a 13bc fd97 2e3c 6ac5 a33b 9ae0 88bb
000001e0: 62ef b7bc 0c3d 83bc 06bb 8cbc 1192 cd3c
000001f0: 129b 64bc f543 ba3c b666 963b 5dab 8a3d
00000200: 57b6 e23c 48ba 163c 95a4 04bd 0fdf abbb
00000210: a88c 193d ba9f 08bc f4db a23a 12ba 553c
00000220: c1b8 3fbc f671 133d 8592 bebc eef2 a93c
00000230: 26b4 bebc 315f f43c 8f23 0b3d a62d cfbb
00000240: cdf3 6c3a 2b67 a7bc 0121 c1bc a558 af3b
00000250: e627 2dbc 5fd6 98bc 4563 4bbc 8509 9c39
00000260: fd99 163d 18dc 303c d0b3 2e3d 6692 443d
00000270: 35ba 953d ee46 283d 5891 1a3c 0727 a5bc
00000280: 39b0 00bd 9d3f e5bc eefd 31ba abd4 18bc
00000290: 11fb 83bb 6aa6 223d 35bd 04bb 9c0b dd3c
000002a0: 7573 17bd a8fb 0ebd 0484 14bc d139 0bbd
000002b0: 6afc a7bb 5533 093c 01bd 9cbc b03f 65bc
000002c0: b0ad 5dbd 1bf2 c1bb caaf 793c cc1b 5e3b
000002d0: 6513 89bb db15 e0bc 6d18 bdbb d788 323c
000002e0: b096 813d 3de1 943d 44c7 ad3d 193f 413d
000002f0: 3306 233d a7c1 973b 0304 2a3c 4fac 9bbb
00000300: 5ab4 12bd 0a7c 48bc d1ff f4bb 491d 943c
00000310: 1a29 07bd b9b9 babc 1b9e f1bb ea1f 46bb
00000320: e479 8bbc e1e1 c4bc fa28 bbbc b711 543c
00000330: eb31 b03c 5115 aa3c ea83 1ebd f64e 61bc
00000340: e971 bebc 269c 85ba ec03 81bc ce9b 003d
00000350: ca72 183d 2bde 1a3d 54dd 633d 9aa7 b43d
00000360: 171a ad3c b449 8f3a a269 93bb b323 d93c
00000370: c88a 83bc f67f 00bd 2055 7c3c 1319 bb3c
00000380: 9f4d a33b 1502 4f3c f192 8ebb 6ce2 1ebd
00000390: 8561 83bc 2311 edbc fd76 d4bc d99c cabc
000003a0: faa8 b1bc 2b3f ffbc 18b3 b0bc 299a 3bbc
000003b0: 2542 e9bc 8f22 b5bb aac9 19bd e5c6 52bd
000003c0: f33c 68bc 3ba5 0a3d 452e 993d 6a2d 933d
000003d0: f997 a13c 3772 0d3d e34f 643c c1ef bebc
000003e0: f2b7 3f3c b0fe 86bb 5499 003c 6bf2 0dbd
000003f0: 0776 05bc 887c b7bc 5f7b fcbc e011 aabc
0.0022681626 -0.002136867 -0.016117526 -0.01039859 0.006460082 0.034244645 0.030905692 0.005699644
-0.0318193 0.0087034535 0.0014767866 0.031128706 0.029670684 0.0101419855 0.060913146 0.04219478
-0.01098317 0.044551495 0.05478885 0.024070095 0.034641404 0.0048339423 0.02039925 0.034977168
0.010546718 0.01265672 -0.034053564 -0.0062013064 0.039690316 0.010222955 0.04499874 0.0017086753
-0.011258311 0.004907174 -0.0255206 -0.0014918952 0.01815025 0.041186683 -0.016160423 0.010861784
0.04951698 0.008745535 0.022588365 0.03718226 0.026415152 0.048212033 0.054203253 0.06472065
0.06567644 0.0037164043 0.03426696 0.012095503 0.040652726 0.0057507074 -0.0115096485 -0.03376873
0.0018104578 0.016177405 -0.006224572 -0.028460156 -0.017527986 -0.0051011285 -0.011902496 -0.028059734
0.022584455 0.0196192 0.023895461 0.035545193 0.0091083 0.05473211 0.019264122 0.023320751
0.036234 -0.0005959122 0.005292966 0.019925334 0.01594359 -0.0033234484 -0.0065168967 -0.009765049
0.026354197 0.03839698 -0.025074938 0.026213018 -0.06864796 0.010226653 0.020300157 0.011400508
0.0071511334 -0.0112318145 -0.011969039 -0.010275404 -0.013529497 -0.017206771 0.026371274 0.03150695
0.0020687988 0.05366898 0.028310409 0.012314604 0.048371606 -0.0075244466 -0.0007067502 -0.019109704
-0.0020561477 -0.01943638 0.03156019 0.03219602 0.03356695 0.03297539 0.024448682 -0.028831122
-0.026943184 -0.00059664354 0.008883739 0.010910419 -0.009005236 0.010656354 0.004997899 -0.004177165
-0.022453014 -0.01602032 -0.017179023 0.025094064 -0.013952987 0.022737483 0.004589881 0.06770966
0.027674837 0.009199686 -0.03238352 -0.0052450965 0.037487656 -0.008338863 0.001242517 0.013044851
-0.011701764 0.035997353 -0.023263225 0.02074572 -0.02327926 0.029830547 0.03396946 -0.0063225804
0.00090390147 -0.020434937 -0.023575308 0.0053511434 -0.010568595 -0.018656908 -0.012413804 0.0002976173
0.03676795 0.010794662 0.04265195 0.04799118 0.07310907 0.04108327 0.009434067 -0.020160211
-0.03141806 -0.027984435 -0.00067898526 -0.009328048 -0.004027732 0.039709486 -0.0020254378 0.026983075
-0.036975343 -0.034907967 -0.009064678 -0.033990685 -0.0051265256 0.008374055 -0.019133093 -0.013992235
-0.05412072 -0.005918754 0.015239665 0.003389108 -0.00418322 -0.027354171 -0.005770734 0.010896883
0.063275695 0.07269523 0.084852725 0.047179315 0.039800834 0.0046312395 0.010376933 -0.0047507654
-0.035816528 -0.0122366045 -0.0074767848 0.01808037 -0.032998182 -0.022793638 -0.007373584 -0.0030231425
-0.017025895 -0.024033489 -0.022846688 0.012943677 0.021508178 0.020762118 -0.03870002 -0.013751736
-0.023247676 -0.0010193631 -0.01574894 0.031398587 0.037218846 0.037809532 0.055630997 0.0882103
0.021130605 0.0010932 -0.0044986764 0.02650628 -0.016057387 -0.031372033 0.015401155 0.022839105
0.0049836184 0.012634774 -0.004351013 -0.03879015 -0.016037712 -0.028938835 -0.025935644 -0.024732994
-0.02168702 -0.03115805 -0.021569774 -0.011450329 -0.028473923 -0.0055278013 -0.037545837 -0.05145921
-0.014174688 0.033848982 0.07479528 0.071863964 0.019725787 0.034532752 0.013935062 -0.023307683
0.011701571 -0.0041197166 0.007849056 -0.034655016 -0.008145816 -0.022398248 -0.030820547 -0.020760477

fc1.bias f4 [100]
00000000: 6885 493c 3840 203d 2d99 87bb ef1e 80bc
00000010: f814 0e3d 12e6 1a3c 2671 f43d 04e5 48bd
00000020: 89ac 7dbd 7501 3c3c 84a5 1e3d b92b 553d
00000030: f6a7 febd 7804 92bd 5d57 a43d f15b 113d
00000040: d2f2 a0bb 7eb6 433e 4b09 3fbd 6df5 dcbc
00000050: 38a9 883b f03d bebc 3d9b b63c 8a93 9e3c
00000060: e158 e6bc d915 173b 0946 d23c 742a 8cbd
00000070: 0c1a bdbd 1bc9 d9ba 50af f4bb 1e3d 773a
00000080: 2244 f7bc 77c0 ab3b cf12 d93c 96a1 9a3d
00000090: 87af f1bc faf6 863d 0d99 c5bb 151d a03d
000000a0: ff5e 9c3d 4466 1d3e 457c 493b c73e 103d
000000b0: ac6f 823c 8380 7b3d 4d5f 953d 00da 3c3d
000000c0: 0352 b7bc 2b31 1f3d 19bb 813d acee 563c
000000d0: 4385 713d 2aca 48ba 6f9b d03a 1f5c 59bc
000000e0: d9ac a9bc cb95 f43d b286 943d 2d7a 773c
000000f0: fa7f a23d 7351 20bc 1acc 223d c80d 68bc
00000100: 71fb f8bb 920f d83d 20ef 513d 3b44 95bc
00000110: 4d85 a43c 8b88 8f3c 325c 243d e0e4 063c
00000120: c95f 9a3d 890a b43b f87e f43c 503b e03d
00000130: 04be 8b3d b9f1 ef3b aa22 813d ab0c 0c3c
00000140: a57e 093b 83e6 a33d 947f 33bd 54ff 8f3b
00000150: 04df 093d 8551 e23c f2b9 203d e4aa aebd
00000160: 4b57 f4bc 61ad f23c d8ce 0b3c 801e e13b
00000170: 21e8 5ebc 9e6b dcbc 67a1 7b3d 1012 c03c
00000180: d447 003d e0c6 923d 44ff 143d e860 643d
0.012299873 0.039123744 -0.004138133 -0.01563975 0.034687966 0.009454267 0.11935644 -0.04904653
-0.06193212 0.011474957 0.038732067 0.05204365 -0.1243438 -0.071297586 0.08024476 0.035488073
-0.004911759 0.19112584 -0.04663972 -0.026972497 0.004170563 -0.023222893 0.02229082 0.019357461
-0.028118553 0.0023053794 0.025668161 -0.06844035 -0.09233484 -0.001661572 -0.007467188 0.00094314094
-0.030183855 0.0052414495 0.026498226 0.07550351 -0.029502643 0.06590076 -0.006030208 0.07818047
0.076353066 0.15371042 0.0030744236 0.03521612 0.01592239 0.061401855 0.07293568 0.04610634
-0.022377973 0.03886525 0.06334514 0.013118427 0.05896498 -0.00076595193 0.0015915463 -0.013266592
-0.020712303 0.11942633 0.072522536 0.015104813 0.07934566 -0.009785044 0.039745428 -0.014163442
-0.0075983335 0.10549845 0.051253438 -0.018221011 0.020083094 0.017521163 0.040126987 0.008233279
0.07537801 0.00549442 0.0298457 0.10948813 0.06823352 0.0073225168 0.0630544 0.008547942
0.0020980027 0.08002951 -0.04382284 0.004394451 0.03365995 0.027626762 0.03923983 -0.085286885
-0.02982678 0.02962369 0.008533202 0.006870091 -0.0136051485 -0.026906785 0.061433222 0.023446113
0.0313185 0.07166839 0.036376253 0.05575648

fc2.weight f4 [100, 100]
00000000: 755d 02bd 8942 5e3e 8207 a5bc 5c19 cbbd
00000010: cae7 f7bc 1c39 693d 4ae1 0c3e a1a6 b03d
00000020: 30fd febd 6aa3 23bd 0cc8 e93c 259d 07bc
00000030: 4475 f93c a310 05bd 455d 283e 931e 113e
00000040: 7a9a 93bd cdcc 853e 8722 63bd 698e a7bd
00000050: 711d cbbb c42f c93d 9eef aabd 1a22 1a3d
00000060: fcb3 aa3d 57e0 99bc 5d7d 1c3e 4585 18be
00000070: 9fc3 56bc e62a 89bd 17dc cb3d c307 f33d
00000080: 03e0 ecbc 4e7a 113e 06cd 133e 35fc dbbd
00000090: 1a79 14be 8a76 c7bd ff42 12be 3eef 44bc
000000a0: fa3a 9f3d 9ff8 213e 1067 63bd 161c f93c
000000b0: c6c2 6dbe 28f5 c43d a988 bebd d42a cebd
000000c0: 480c db3d 940a 173c f067 413e fd6b ac3c
000000d0: 7f21 22bd 7757 a8bb 8c48 e33d f414 c03d
000000e0: 20af 343e e5f7 49bc d34b a0bd 2a14 0c3e
000000f0: 7479 2f3e bd47 9ebd 9095 0ebe 6fb5 893e
00000100: 7c75 0bbe 774a df3d 7ade 82bd b58c 303d
00000110: 5a60 383c 7990 333e e7d0 93bd 6103 153e
00000120: 3183 8b3d d697 963c 21d2 76bd c12f 8d3d
00000130: 22f4 2cbd cbdd 633d 8082 203e 713f 023e
00000140: fbcb 7f3d 9501 23be 5107 a43d dad3 e4bd
00000150: 5655 db3d fbef a3bd b1a4 b63b 8aec 08bd
00000160: b6c0 1ebe bb90 94bd 2811 6d3d 3cad a7bd
00000170: d3cd e43d 3499 1e3e 5cde 153d 9b4d 6fbd
00000180: 9e8d 4dbd 4d82 453d b7f1 483d 1795 a1bd
00000190: 6008 473d 9835 28bd eff3 2a3d bf14 483d
000001a0: baa7 9abd 8433 99bb a3d9 3f3d 296a 84bd
000001b0: 37f4 72bd af3a 80bd ece7 033d 7f2d 6e3b
000001c0: 2ca2 db3b 4ca0 9cbd 2698 8fbc a1e3 bb3c
000001d0: 0151 ee3c d8d4 9a3d c7d6 1bbd aaf8 86bc
000001e0: 2b0e c03c 9ce3 dabc ed09 b2bd cf8e 50bc
000001f0: caf5 a7bd c6ce b63c 098a 79bd 6890 3bbd
00000200: ef4e 1d3d 32ee 483d 2e74 2ebd 1e34 b53c
00000210: 6865 82bd 3df5 a9bd c4c1 a3bd 7a2c 0c3d
00000220: 1a3e 47bd 78ff 0abd d738 89bc 5eb8 d13c
00000230: e6b7 463c 0df5 0ebd 86c6 a83a e610 70bc
00000240: 1dc3 693b 6612 b0bd a3b9 a93b 0f78 83bd
00000250: 27b8 9abd fed8 2d3c 2b97 f0bc 4f8f 8f3d
00000260: df26 853c c267 9dbd 0a6a 993d 49e8 c0ba
00000270: 7eba 86bd 0fb6 023d e5cc 113d 51b2 94bd
00000280: 0df6 2f3d 2e8f f8bc a761 adbd 52cd 803d
00000290: e0f9 67bd 35f7 9d3d 2f9c 893d b4fc 9e3d
000002a0: 6cd4 0cbd d9b8 53bd 04ee b8bd da04 873d
000002b0: 9265 59bd 3fe4 fd3c 5b69 8abd 1967 283d
000002c0: 1331 aa3d fc01 91bd bbf8 16bd 062f 223c
000002d0: 26d4 5ebd 39ad 8e3d f198 ba3d 104c b0bd
000002e0: 72a8 ef3c f42a 9abd 129a 143d caee a4bd
000002f0: f7b5 953d 22f5 52bd 1a7f 29bd c034 54bd
00000300: 21fd 2fbd 799e 423d 7625 11bc 7afe ec3c
00000310: 1b90 563c fbac 0fbd 6eb2 a5bd c20a 80bd
00000320: 518e 323d 2c76 a73d dbb2 9f3d 5c84 88bd
00000330: 52fc 663c 7d83 a0bd 2744 443d d1d4 94bc
00000340: 326a 9e3d dcbf 7c3d 09f1 bf3d 876a 583c
00000350: d5de 573a 1632 8c3d 7805 76bd 9477 483e
00000360: 29b6 1ebd 1b26 8d3d 77c1 27bc e84b acbc
00000370: 63ac aa3d d57e 9d3d 7d16 9ebd ea51 3ebe
00000380: df26 acbb b85c 6f3d 7cf0 7c3d 436d 663d
00000390: 9811 89bd 3387 7abd bbfe debb c82d 05bc
000003a0: bbf2 32bd 0636 803d a670 9dbd 6862 56bd
000003b0: 5c18 24bd e42b bfbc c62e 9bbd a9cd 57bc
000003c0: 75f0 e23c ddd1 ea3d 595e ee3d fc28 6e3d
000003d0: 888a aabd 5036 963b 801b 343c 335c 583d
000003e0: 6c40 c8bc defa b9bc e054 d6bb 5e8c 0dbd
000003f0: c9da 253d bcbd af3d 8d4a 853d 6bac 65bd
-0.03182741 0.21705069 -0.020145182 -0.09916946 -0.030261893 0.05693923 0.13757816 0.08625532
-0.124506354 -0.039950766 0.028537773 -0.008277212 0.030451424 -0.03248657 0.1644183 0.1417182
-0.072071984 0.26132813 -0.05545285 -0.081814595 -0.006198578 0.09823564 -0.083464846 0.037630178
0.083351105 -0.018783731 0.15282197 -0.14894588 -0.013108163 -0.06697635 0.09954088 0.11866715
-0.02891541 0.14206812 0.14433679 -0.10741464 -0.14499322 -0.097394064 -0.1428337 -0.01201993
0.07774921 0.15817498 -0.05551821 0.0304089 -0.23218831 0.09617072 -0.093034096 -0.100667626
0.10695702 0.009218831 0.18887305 0.021047587 -0.039582726 -0.0051373797 0.110978216 0.093789965
0.1764493 -0.012327169 -0.07826962 0.13679567 0.17136174 -0.07728527 -0.13924241 0.26896235
-0.13619035 0.10902875 -0.0639009 0.04310294 0.011253441 0.1753558 -0.07217579 0.1455207
0.06812132 0.018382948 -0.06025899 0.06893874 -0.04222501 0.05563144 0.15674782 0.12719513
0.06245039 -0.15918572 0.08009208 -0.1117322 0.10709636 -0.08004757 0.005573832 -0.033428706
-0.15503201 -0.07254168 0.05787769 -0.08187339 0.1117207 0.1548813 0.03658901 -0.05842362
-0.050183885 0.048219968 0.049058642 -0.07889765 0.04859197 -0.041066736 0.04173654 0.04884791
-0.075515226 -0.0046753306 0.046838414 -0.06465561 -0.059314933 -0.06261193 0.0322036 0.0036343036
0.006702682 -0.07647762 -0.017528605 0.02293569 0.02909136 0.07560128 -0.038046625 -0.016475994
0.023444256 -0.02671986 -0.086932994 -0.012729361 -0.082011774 0.022315394 -0.060922656 -0.045792013
0.038405355 0.049055286 -0.042591266 0.022119578 -0.06366998 -0.082987286 -0.07995942 0.034222104
-0.04864321 -0.03393504 -0.016750736 0.025600608 0.012128806 -0.034901667 0.0012876547 -0.014652466
0.0035669275 -0.08597259 0.0051796003 -0.06419384 -0.075546555 0.010610817 -0.029368958 0.07009756
0.016253887 -0.07685806 0.074909285 -0.0014717664 -0.06578539 0.031911906 0.035595793 -0.07260574
0.04295926 -0.03034171 -0.08465891 0.06289162 -0.056634784 0.077131666 0.06719243 0.07763043
-0.03438227 -0.051689956 -0.09029773 0.06592722 -0.05307538 0.030992625 -0.06758376 0.041113947
0.083101414 -0.070804566 -0.0368583 0.009898907 -0.05440154 0.06966633 0.091112025 -0.08608258
0.029255126 -0.07527724 0.036279745 -0.08053358 0.07310098 -0.051503308 -0.04138098 -0.05180812
-0.042966012 0.047514413 -0.008859029 0.028929938 0.013095881 -0.035077076 -0.080906734 -0.06252052
0.043592755 0.08176836 0.07797786 -0.066658705 0.014098244 -0.078375794 0.047916558 -0.018167885
0.07735099 0.06170641 0.09372146 0.013208992 0.00082348037 0.06845491 -0.06006381 0.19576865
-0.03874794 0.06892034 -0.010238997 -0.021032289 0.083336614 0.07690207 -0.07719133 -0.18585935
-0.0052536572 0.058438033 0.06175278 0.056256544 -0.06692809 -0.061164092 -0.0068052686 -0.008128591
-0.043688517 0.06260304 -0.076875016 -0.05233994 -0.040062293 -0.023336358 -0.07577281 -0.013171592
0.02770255 0.114658095 0.11639089 0.058144554 -0.08327204 0.0045841113 0.010992885 0.052822303
-0.024444781 -0.02270263 -0.0065408796 -0.034557693 0.040491853 0.08581111 0.0650836 -0.056072634

fc2.bias f4 [100]
00000000: 9e9a 3d3d 242d b3bb f6e1 663d dc92 2b3d
00000010: ee9f 8e3d ce7e 5f3d ed8e 44bb 94d0 cb3d
00000020: 4aa0 843d 7e72 48bc 7c80 86bd d050 76ba
00000030: 7fad 5d3c 6268 843d 1a0e 07bd 4b70 0d3d
00000040: 5b53 a0bd 652c 6dbd 1a8c e33d 3353 15bd
00000050: 67a2 043e e85f 39bd 1bb8 45bd bd5e 7e3d
00000060: eca4 f53d 4bc7 9abd 624d 203d 5bff 603d
00000070: 551c 6bbd b552 583c 9b2e c83b e069 b93d
00000080: 619f 65bd eec3 443c 173b 97bd 63eb 59bd
00000090: 24d3 d6bc 4b07 b83d d867 383d 139b c13d
000000a0: 98be 983c 06a6 d43d fe81 4dbd 87fe c03d
000000b0: 6559 a63d d7d4 843c 0eb5 4b3e 5e99 7fbd
000000c0: 2e23 623d 1bc7 503d 3b10 893d 5793 fb3d
000000d0: 1a0f cf3d 44c9 dd3b 0d67 8ebd 878f 1d3e
000000e0: 8672 253e 079e 88bd ab9d e13b e076 77bd
000000f0: 1add b83d 7b2b 243e 923f 54bd 14c5 ab3d
00000100: d9ab 5abd c276 c63c 8685 f0bc a6a4 7fba
00000110: d0da 753d db05 a5bd f8da ccbb bcc6 5e3d
00000120: 2b1d 4cbd c573 c03c cd53 a2bd 2aa0 103e
00000130: 4ca6 92bd 9d03 6b3d 377e e43d dc70 2b3d
00000140: 58a1 9a3d 4ccb a3bd 1811 173d 6d72 9f3d
00000150: 0fa2 023e 1dd7 bd3d 2f4b 52bd 1930 9dbc
00000160: e4c1 313e 3e93 65bd 4b2d debc 4f2a f83b
00000170: ae50 3abd 9462 3cbd 72c6 84bb 007e 3ebd
00000180: dfcb 36bd a52b b43d aa28 98bc 27f7 4a3c
0.046290033 -0.0054680277 0.056367837 0.041888103 0.06964098 0.05456429 -0.0029992417 0.099518925
0.06475885 -0.012234328 -0.06567475 -0.0009396197 0.013530134 0.06465222 -0.032972433 0.03453092
-0.07828399 -0.057903666 0.111107066 -0.036456298 0.12952577 -0.04525748 -0.04827128 0.06210207
0.11994347 -0.07557543 0.039136298 0.054931026 -0.057400066 0.013203313 0.0061090714 0.09053397
-0.0560602 0.012009604 -0.07384317 -0.053202998 -0.026223727 0.08985766 0.045020908 0.09453406
0.01864557 0.10383229 -0.0501728 0.09423547 0.081225194 0.016214771 0.19893286 -0.06240212
0.05520933 0.05097113 0.06692549 0.12283962 0.10110302 0.0067683775 -0.06953249 0.15386783
0.16156968 -0.06670766 0.0068852506 -0.060416102 0.09026547 0.16032211 -0.051818438 0.08387199
-0.053386543 0.02422655 -0.029360544 -0.00097520126 0.06002313 -0.080577575 -0.006251689 0.054388747
-0.049832504 0.023492703 -0.0792614 0.14123598 -0.07160625 0.057376493 0.11156886 0.041855678
0.07550305 -0.0799776 0.036881536 0.07785497 0.12757133 0.09269545 -0.051341232 -0.019187974
0.1735912 -0.056048624 -0.027121207 0.007573403 -0.0454871 -0.04599245 -0.004051977 -0.04650688
-0.04462802 0.08797387 -0.018574078 0.012388027

fc3.weight f4 [100, 100]
00000000: afbc 693e b3dd 353c 550f b4bd b0ff 0abc
00000010: 16e5 803d de30 9abd 8b7f 31bd 40b7 91bd
00000020: ca9d 913d 182e 453d a68b 5abb be5e 83bd
00000030: 9ff8 23bd e184 89bd 9265 b0bd 7ef6 52bd
00000040: c4d0 7cbd 57cf 933c 9a10 febd 6237 2a3e
00000050: 0958 553c ec7f c9bc 6fdb e3bd d420 b6bd
00000060: 7d3f d43d 5d85 eb3c 0584 f0bc 3a5f adbd
00000070: c7e8 e1bc 300b bb3a aa10 323e 2fba 4bbd
00000080: 37f2 9fbc f672 683e 4155 b83d 9e80 a0bd
00000090: 88f6 cfbb 01ba 073e 9a3d 54bb 6a3d 6d3d
000000a0: ea6e 683c 2266 9a3d 552f 4dbc bc40 853e
000000b0: 8bd0 1b3e e109 0bbe 58a8 3b3c 93d7 9dbd
000000c0: e143 293d c523 fe3d be30 283d a980 92bd
000000d0: 09c0 863c f184 9a3d 7afa c3bd 436e 523d
000000e0: b6d6 e8bc 03d6 aebd cbce 413d 6888 2d3a
000000f0: 7346 fe3d e230 8a3c 00b8 f83d 82ea 0c3c
00000100: 915f c43b de70 b1bd 2a44 913c 69aa 4dbd
00000110: fe44 bcbd 47b8 b8bd 97d7 4c3e d929 46bd
00000120: 8077 dd3c 1234 b33d e282 d33b 5376 0fbe
00000130: 7b33 5abd 8a9a 4b3a 5c29 163e 3446 f33d
00000140: 4dbf 6c3d 0f4c 733d 19c0 843d 224e 02bd
00000150: 0045 6f3e ed44 97bd 4961 293d 7269 233d
00000160: 711d 293e 142f debd 1f93 0dbd b7b8 cabd
00000170: b53a 0f3d cbe6 be3d cd84 ab3d 46db d9ba
00000180: 68ec b53b 34c5 cc3d 458f 84bb 8aea 1a3d
00000190: e449 043e 9210 d13c 38dc bfbd d038 0fbe
000001a0: 3f75 0f3e a9ff d4bc 98fb 48bc 953e 0ebe
000001b0: 1564 0dbd ccdf f2bc 8fa9 0dbd de86 9dbc
000001c0: 3a2e bb3c d02f 8b3b cb29 81bd c5da b43d
000001d0: 45f4 a6bc f0d5 f8bc b8f6 e33c 01ad 0f3e
000001e0: 97c2 4e3e ad50 763d c8ae 6abd 658b 003e
000001f0: 2153 0c3e cb4e 9f3d e6a0 21bd e3e7 373d
00000200: 3507 39bd 8a78 9dbd 2f87 9bbd 4675 5abd
00000210: ddb6 b0bd b534 cbbb a107 94bb a2e6 803d
00000220: ff7f 233d 46f0 55bd 71e9 cbbb 6fcd 533d
00000230: ab5b e9bc 6c6e 1ebe 5d92 cabd e607 e93d
00000240: a0d0 55bd e520 69bd 677b 833d ede6 bd3c
00000250: 926e 0fbd 62d1 083e 7da1 49bd 775a f4bc
00000260: f547 493e b2b8 b03d c9b4 83bd 5980 763d
00000270: a40b 87bd d673 a63d 9981 8d3d b596 97bd
00000280: b89f 16bd 794c 05be 6992 e13d 3afd e23b
00000290: 50cd edbb 620a fc3c 4ef1 2a3e fcfe b2bd
000002a0: 8699 f3bd e524 d43d de92 16be 9a6e 393d
000002b0: 0461 053d a8a2 3cbd 9d47 333d 26d2 003d
000002c0: 14c3 653c fb3f 773d 8ab9 9cbc a6a9 bc3c
000002d0: a6cc f3bd b117 b6bd 70db a73d 6457 b8bc
000002e0: 3371 323e 8435 ad3d b507 3b3d 1e82 b43d
000002f0: 9a99 883d 337c 2b3d e004 86bc ab42 843c
00000300: 9d76 4ebd ba23 afbd 43c7 073e d992 3abd
00000310: 6f25 2bbd 3b37 9ebc 3224 4f3d ee67 ed3d
00000320: b11a 183e 5d02 c7bb 2b6c 4a3c 179e 0bbd
00000330: 0fe1 9d3c a861 03bd 3fb7 cebb a56b 8cbc
00000340: a0a9 833d 7469 353d a7dc 2d3d 01c5 92bd
00000350: 3e90 303d 7020 55bd adae a63b 9246 553d
00000360: 9664 04bc 1c64 ab3d e942 0cbe 14d2 0e3e
00000370: b866 8d3d e44e be3c 600b 153d 5625 d53b
00000380: 5595 c1bd 3ff4 af3d 31b3 24bd b9f4 da3c
00000390: be3e a93c c9ea dfbb 883e 6a3d 5ff1 e2bd
000003a0: bee2 a0bd e59b e63d 1899 753d 6003 533d
000003b0: 8ca0 92bd 54a8 87bd 3ed7 843d c9c0 973d
000003c0: d704 3abd 674a 923d b2bd 8e3d 0e57 db3d
000003d0: 363f 88bd ea10 ed3d f36a 86bb f7d1 e6bc
000003e0: 8e08 39bb 96d9 bb3d 73c9 1c3e 7cb9 5dbd
000003f0: 3154 bd3d 979c 21bc c193 90bd 81d4 12be
0.22825883 0.0111002205 -0.08791987 -0.008483812 0.06293695 -0.07528852 -0.043334525 -0.0711503
0.07110174 0.04813966 -0.0033347397 -0.06414555 -0.040032025 -0.06714798 -0.08613123 -0.051504605
-0.061722532 0.018043203 -0.1240551 0.1662269 0.0130214775 -0.02459713 -0.11125838 -0.0889298
0.10363672 0.028750116 -0.029359827 -0.08465429 -0.027576817 0.0014270302 0.1738917 -0.049738105
-0.019524677 0.22700104 0.09000636 -0.07837032 -0.0063465275 0.13254549 -0.003238535 0.057919897
0.0141866 0.075390115 -0.012523492 0.2602595 0.15216272 -0.13577987 0.0114537105 -0.07707133
0.0413245 0.12409166 0.04106211 -0.07153446 0.016448991 0.07544888 -0.09569259 0.051374685
-0.028422695 -0.08536913 0.047316354 0.00066197524 0.12415781 0.016869012 0.1214447 0.008600833
0.0059928377 -0.08664106 0.017732698 -0.050211344 -0.09192847 -0.09019523 0.20004116 -0.048379753
0.027034521 0.08750166 0.0064548114 -0.14009981 -0.05327175 0.00077668636 0.14664215 0.118786246
0.057799626 0.059398707 0.06481952 -0.031812795 0.23366165 -0.073861934 0.041352544 0.039895482
0.16515137 -0.10848823 -0.034564134 -0.09898513 0.034968097 0.09321364 0.08374939 -0.0016621135
0.0055518635 0.09998551 -0.0040453994 0.03782133 0.12918812 0.025520597 -0.09368175 -0.13986516
0.1400957 -0.026000815 -0.012267016 -0.1389106 -0.034519274 -0.02964773 -0.03458553 -0.019229349
0.022849191 0.004247643 -0.063067995 0.088307895 -0.020380149 -0.03037545 0.027827606 0.1403084
0.20191418 0.060135532 -0.05729559 0.12553175 0.13703586 0.077787004 -0.039460085 0.04489888
-0.04517289 -0.076890066 -0.075941436 -0.053334497 -0.086286284 -0.0062013515 -0.004517511 0.0629399
0.03991699 -0.052231096 -0.0062228967 0.05170959 -0.028486094 -0.1547181 -0.09891198 0.1137846
-0.052200913 -0.056916136 0.064200215 0.023181403 -0.035017557 0.13361123 -0.049226273 -0.029828293
0.19656356 0.08628978 -0.064309664 0.060180996 -0.06594017 0.08127563 0.069094844 -0.07401792
-0.036773413 -0.13017453 0.11014254 0.0069271596 -0.007257141 0.03076667 0.16693613 -0.08740041
-0.11894517 0.103585996 -0.14704463 0.045271493 0.032563224 -0.04605356 0.043769468 0.031450413
0.014023561 0.06036375 -0.01913144 0.023030113 -0.11904268 -0.088912375 0.08196151 -0.022502609
0.17425995 0.08457473 0.045661647 0.088138804 0.06669922 0.041866492 -0.016359746 0.016145071
-0.050406087 -0.08551736 0.13259606 -0.0455502 -0.041783746 -0.019313445 0.050571628 0.11592089
0.14853932 -0.00607328 0.012354891 -0.034086313 0.019272355 -0.032075554 -0.0063084657 -0.017141173
0.06428838 0.04429002 0.04244676 -0.07166482 0.04310631 -0.052032888 0.005086741 0.052069254
-0.008080622 0.08368704 -0.13697399 0.13947326 0.06904358 0.023230977 0.0363878 0.006504695
-0.09452311 0.08591508 -0.040209953 0.026728021 0.0206598 -0.0068334085 0.05718854 -0.11081194
-0.07855748 0.11260203 0.059960455 0.05151689 -0.07159528 -0.06623903 0.06486367 0.07409818
-0.045414772 0.07143097 0.06969775 0.10709964 -0.066526815 0.11575492 -0.004102105 -0.02817629
-0.0028233859 0.091723606 0.15311222 -0.05413197 0.09244574 -0.009863994 -0.07059432 -0.14338876

fc3.bias f4 [100]
00000000: b1c4 443e 553e 89bd 4c89 c53d b25f 043e
00000010: 40e9 943e e491 82bd ebd4 0bbd b749 063e
00000020: 77de 87bb 1deb 1f3e 9a03 59bd 989f 9ebd
00000030: e861 6e3d 81d8 93bd ac06 0c3c 4bdb 383c
00000040: 3107 043e e501 e7bb a8e2 f63a 0462 f33c
00000050: a542 113e 6337 83bd f72c 53bd 9265 1abd
00000060: 5e48 80bd 3ee6 7abd 068b 683c fcbe 95bd
00000070: 30f3 3fbd 9fb8 553e dab5 be3c ff97 1c3e
00000080: 902b b5bd 40e5 023d be0c 7a3e a8dc 70bd
00000090: 8a54 773d 58e7 d53c 42a1 ff3d 80dd d7bc
000000a0: 6736 acbd 658e c83d fb7e c03d 1001 a4bd
000000b0: 0353 163e fdf2 6b3d 63fd 7cbc 0195 033d
000000c0: e6b0 c03c 57a6 c43c 898b e43d 0d00 8ebd
000000d0: 9c75 05bc f507 a43d 8a85 003e 8d2b ad3d
000000e0: b709 dabd 7608 bb3c c8d7 9ebd 593a e33c
000000f0: efcd 123e b6dc a8ba 1aab 2b3e 98a2 bd3d
00000100: 49a5 1b3e 0c27 04bd 827b 4aba 84a7 f2bb
00000110: 0b22 d43d c1cd 54bb e0af 9ebb d481 aabc
00000120: 3cd2 2cbd 8fdd 0b3c 3396 78bc b48c be3d
00000130: 5066 87bd 7e34 45bc a116 083d 5738 843d
00000140: 957b 833e 8c3c c13d aed5 1dbc 2e8d 9a3c
00000150: 0be8 843d 9734 8fbd 17dd 9dbc 8920 233d
00000160: 01e3 9a3d ba16 99bd 6d90 743e 2655 84bb
00000170: 372a 2a3d 5035 4c3e bcfe a5bc 5b87 48bd
00000180: b762 d73d ac53 4abd 441c 05bd 7804 98bd
0.19215657 -0.06701342 0.09645328 0.1292713 0.29084206 -0.06375483 -0.0341386 0.13114057
-0.004146393 0.15617032 -0.05298195 -0.07745284 0.05819884 -0.07219029 0.008546513 0.011282752
0.12893368 -0.0070497864 0.0018835859 0.029709823 0.14185579 -0.064070486 -0.051556554 -0.03769452
-0.06263803 -0.061254732 0.014193302 -0.07311818 -0.04686278 0.20871209 0.023280073 0.15292357
-0.088461995 0.03195691 0.24418923 -0.058804184 0.060383357 0.02611129 0.12481929 -0.026350737
-0.08408814 0.097927846 0.093992196 -0.08008015 0.14680104 0.05760478 -0.0154412715 0.032124523
0.023521852 0.024005098 0.11159427 -0.069336034 -0.008145716 0.0800933 0.12550941 0.08455572
-0.10646384 0.022831183 -0.07756001 0.027737783 0.1433637 -0.001288316 0.16764489 0.09259528
0.1519977 -0.0322638 -0.00077240926 -0.0074052233 0.10358056 -0.0032471272 -0.0048427433 -0.02081386
-0.042192683 0.00853671 -0.015172529 0.09304181 -0.066113114 -0.012036441 0.033224706 0.064560585
0.25680223 0.094353765 -0.009633465 0.018866148 0.06489571 -0.069924526 -0.019270463 0.03982595
0.07562829 -0.07475038 0.23883219 -0.004038471 0.041544165 0.19942212 -0.020263068 -0.04895721
0.10516875 -0.049396202 -0.03249766 -0.07422727

fc_out.weight f4 [10, 100]
00000000: 433d 283c e673 06be f0c1 f0bd 82eb eebd
00000010: f285 debd ee35 75bd a8c3 953d 3017 433e
00000020: 15df 86bd 00b9 2fbe 207a 533d 6bb7 10bd
00000030: c313 c53e 1de5 80be 5c9c c63e 524c 57be
00000040: faf6 33be 46dc 8b3c d8b3 57be 1c6a 82bd
00000050: 62c7 2c39 61c7 29bc 8f93 0cbc 1bfe 67be
00000060: ace0 ebbe ba41 aabc d6ca 94bd ff14 b93d
00000070: 2dd9 723e 5efd 80be ab02 073e b12b 5dbe
00000080: 6cae 10be 0957 b6bd d77b 09bd a169 b03c
00000090: c889 7a3d dae0 aebe afdf b03e 3c7d 113e
000000a0: 8bab 7a3d eee4 2fbe d5aa aebe 09fe 983d
000000b0: 4608 5fbd 4e63 09be a97a dbbc e8fb 003e
000000c0: 2d2b af3e 5178 ca3e 4597 423e 98d4 2d3d
000000d0: d3fd 0d3e a49a 6a3d 2069 6e3d 2a17 1b3d
000000e0: 7eba 363e bbbc 43bd ecc9 793d b951 833d
000000f0: 76b0 183e 8f2f 4d3e 7bfa 503e 742c 0ebe
00000100: b76a 6cbe 98aa 09bd 5872 383c 546a 5a3e
00000110: ce48 e63e 7250 443d 42f9 3dbd 9215 b7be
00000120: 04d1 483d 026a 623d 780f 7dbd 9c41 853e
00000130: a138 a43d 7ffa 5f3d 1aed 52be f878 2fbe
00000140: 4dbe b7be 7e83 5abd 80c6 fc3d 4078 803e
00000150: c1e1 93be aebc fc3d dff3 173d 0c40 5f3b
00000160: 3204 263e 2dab 1bbd 0d56 e3be 377f a7bd
00000170: 89ab de3e 858f 62be be31 643d aa7f 953d
00000180: 9540 df3d d4b2 113d a6a7 4b3e ac00 3e3e
00000190: c1b8 39be 1d0a e03c bb82 d5bd 1643 613e
000001a0: 8926 5c3e e397 9a3d 26d1 cbbe 7a50 7dbe
000001b0: f567 acbd c892 8e3d a49b 31bc 3277 62bd
000001c0: 3deb b7be 8a95 78bd f951 a8be b8c6 8e3e
000001d0: 202e 3f3e 6493 30be 36f7 84bd d4b3 9cbe
000001e0: fb2e a23e a79f 4bbd 1d88 c6bb 2a68 1ebe
000001f0: a70d 96be 698f 973d f03d bbbd 2fab 6d3d
00000200: b6d4 a3bd 5ac2 a23e 1220 933e 2ddd 073f
00000210: 5a06 9dbd 5f8e c43c 1518 a63e d50a 36bc
00000220: 3bc9 303e 979e f6bd a376 a93a 8cec 9abe
00000230: ba0f 07be eff7 523e c0aa acbd 0c76 0ebd
00000240: d1c5 093e 5e80 053e d560 44be f5d7 f8bd
00000250: ce52 b23d e1ec cbbe 7fb3 0dbe 019f b23d
00000260: 82bf 18bd 9764 70be 1d33 723d 64fc 5b3d
00000270: a0ce 02be 0842 3339 077a 82bc eb79 a4bc
00000280: 82e7 0b3e 79b9 41be 32ec 3d3e a314 1cbe
00000290: 7218 963e 21b8 a7bd 82e6 5e3d 1bbb 47bc
000002a0: d0f8 65be f238 c2bd bf39 f8bd 4346 afbe
000002b0: 10b0 41bd a73d 13bd c1d5 8ebd 688d 5abe
000002c0: 03c8 efbd c1d8 4bbe 7615 a5bd d7cd 713e
000002d0: 1765 423f 71cc 413d cf74 a93d 63ea 28bd
000002e0: ec0e df3d f1cb 88bd 40b0 a03c bc92 453c
000002f0: cff1 e33b ba1f 13bc f43d 8c3e 070d e23c
00000300: 02c6 743c c127 fa3e 3dd0 c13d bde0 d6be
00000310: 686e a13d 5cf3 19bb efcb 2abe e8dc c8bd
00000320: d680 53be d473 92be b828 04be 312c c43d
00000330: 82c8 c0be ea56 d63d 7c34 a53e 3465 bbbe
00000340: 5682 273e 8a7c 97be 45ea 753c 58d7 0bbd
00000350: 2730 313e 4425 4abd 2b6e 74be 3ae7 e5bd
00000360: a117 593e a798 483d c772 79be 0318 f8bc
00000370: 740e 48be a40e bb3d 2641 91bb e5f5 733d
00000380: 550c 953d a353 c6bc 629e b63d 04bd b93d
00000390: a241 9e3e d257 eb3e 1c5e 5abe 3ad2 763c
000003a0: fe07 2dbd 58e3 073e 8aed d23e fc4b 38bd
000003b0: b251 7a3d f1d7 ae3d 850e 8bbe 9f74 b73e
000003c0: 536d 29bc c1c9 96be f943 dd3c b7f3 80bc
000003d0: 7540 b2be 54ab 983e 8818 f1bd f500 38bd
000003e0: 8c6c 063e 7d3c 46be 121e 98bd bd1a 9bbb
000003f0: a1b6 963e ec71 4fbe 76f3 02be 7097 7fbd
0.010268512 -0.13130149 -0.11755741 -0.11666013 -0.10865392 -0.059865884 0.07312709 0.19051814
-0.06585518 -0.17160416 0.05163014 -0.03533117 0.3849164 -0.251748 0.38791168 -0.21025208
-0.17574683 0.017072808 -0.21064699 -0.06367895 0.00016477474 -0.010362477 -0.008580103 -0.22655527
-0.4606985 -0.020783294 -0.072652504 0.09037208 0.23715658 -0.25193304 0.13184611 -0.21598698
-0.14129037 -0.089033194 -0.03356537 0.021534743 0.061166555 -0.34155923 0.34545657 0.1420793
0.061198752 -0.17177173 -0.3411471 0.07470328 -0.05445125 -0.13416788 -0.026791887 0.12596095
0.34212628 0.3954492 0.19003017 0.042439073 0.13866358 0.057276383 0.058205724 0.037863888
0.17844579 -0.04778741 0.060983583 0.06412072 0.14911065 0.20037673 0.2040805 -0.13884145
-0.23087583 -0.033609957 0.01125773 0.21329623 0.4497742 0.04792828 -0.04638029 -0.35758644
0.049027458 0.05527688 -0.06178233 0.26026618 0.080186136 0.05468225 -0.2059826 -0.1713599
-0.35887375 -0.053348057 0.12342548 0.25091743 -0.28883174 0.12340675 0.037097808 0.0034065275
0.16212538 -0.038005043 -0.4440159 -0.08178561 0.43490246 -0.22125061 0.0557115 0.072997406
0.1090099 0.035570934 0.19888172 0.18554944 -0.18136884 0.027348572 -0.104253255 0.21998248
0.21499075 0.07548501 -0.39808005 -0.2473773 -0.08418266 0.0696159 -0.01084033 -0.055289455
-0.3592166 -0.060689487 -0.3287504 0.27885985 0.18669939 -0.17243725 -0.06492464 -0.30605948
0.31676468 -0.049712803 -0.0060587064 -0.15469423 -0.2930729 0.074004 -0.09142673 0.05802458
-0.07999556 0.31788903 0.28735405 0.5307186 -0.07667227 0.02399367 0.32440248 -0.011110981
0.17264263 -0.12041967 0.0012929033 -0.30258596 -0.13189593 0.20602392 -0.084310055 -0.034780547
0.13454367 0.1303725 -0.19177563 -0.121505655 0.087072 -0.39829162 -0.13838004 0.08721734
-0.03729201 -0.23475872 0.059130777 0.053707495 -0.12774134 0.00017095369 -0.015927328 -0.020077666
0.13662532 -0.18918408 0.18547133 -0.15242247 0.29315525 -0.08189417 0.054419048 -0.0121906055
-0.22458196 -0.09483518 -0.12120389 -0.34233293 -0.047287047 -0.035947468 -0.06974364 -0.21343005
-0.11708071 -0.19906904 -0.08060734 0.23613678 0.759355 0.04731411 0.082742326 -0.041239154
0.10891518 -0.06679524 0.019615293 0.01205891 0.006956316 -0.008979732 0.27391016 0.027594103
0.014939787 0.48858455 0.094635464 -0.41968337 0.078823864 -0.0023491 -0.16679357 -0.098077595
-0.20654616 -0.28603995 -0.12906158 0.09578741 -0.37652975 0.10465796 0.32266605 -0.3660065
0.16358313 -0.29587203 0.0150094675 -0.034140915 0.17303525 -0.049351946 -0.2387015 -0.112257436
0.2120042 0.048973706 -0.2436019 -0.030284887 -0.19536763 0.09133652 -0.004432815 0.059560675
0.07277743 -0.024209803 0.08916928 0.09069255 0.3090945 0.4596544 -0.21324962 0.01506477
-0.04224395 0.13270319 0.41196853 -0.04499434 0.061113067 0.08537281 -0.27159515 0.35831162
-0.010341006 -0.294508 0.027009951 -0.015741212 -0.34814802 0.29818213 -0.11772257 -0.044922788
0.13127345 -0.19359012 -0.074276105 -0.004733412 0.2943621 -0.20258301 -0.12788185 -0.06240028

fc_out.bias f4 [10]
00000000: 2158 4dbe bcd1 cd3e 7532 5fbc 0f8a c0bc
00000010: 7f5f 53bd fd27 2e3e 2ce9 0cbe 51b7 1a3e
00000020: db84 a3be 26f0 0abd
-0.2005315 0.40199077 -0.01362287 -0.023503331 -0.051604744 0.17007442 -0.13760823 0.15108992
-0.31937298 -0.03392043
